program(1.0)
[buildInfo = dict<tensor<string, []>, tensor<string, []>>({{"coremlc-component-MIL", "3304.5.2"}, {"coremlc-version", "3304.6.2"}, {"coremltools-component-torch", "2.2.2"}, {"coremltools-source-dialect", "TorchScript"}, {"coremltools-version", "7.1"}})]
{
    func main<ios15>(tensor<fp32, [1, 3, 640, 640]> image) {
            tensor<fp32, []> image__scaled___y_0 = const()[name = tensor<string, []>("image__scaled___y_0"), val = tensor<fp32, []>(0x1.010102p-8)];
            tensor<fp32, [1, 3, 640, 640]> image__scaled__ = mul(x = image, y = image__scaled___y_0)[name = tensor<string, []>("image__scaled__")];
            tensor<int32, []> var_21 = const()[name = tensor<string, []>("op_21"), val = tensor<int32, []>(1)];
            tensor<int32, []> var_22 = const()[name = tensor<string, []>("op_22"), val = tensor<int32, []>(2)];
            tensor<int32, [2]> var_60 = const()[name = tensor<string, []>("op_60"), val = tensor<int32, [2]>([2, 2])];
            tensor<int32, [2]> var_62 = const()[name = tensor<string, []>("op_62"), val = tensor<int32, [2]>([1, 1])];
            tensor<string, []> input_1_pad_type_0 = const()[name = tensor<string, []>("input_1_pad_type_0"), val = tensor<string, []>("custom")];
            tensor<int32, [4]> input_1_pad_0 = const()[name = tensor<string, []>("input_1_pad_0"), val = tensor<int32, [4]>([1, 1, 1, 1])];
            tensor<string, []> image_to_fp16_dtype_0 = const()[name = tensor<string, []>("image_to_fp16_dtype_0"), val = tensor<string, []>("fp16")];
            tensor<fp16, [48, 3, 3, 3]> model_model_0_conv_weight_to_fp16 = const()[name = tensor<string, []>("model_model_0_conv_weight_to_fp16"), val = tensor<fp16, [48, 3, 3, 3]>(BLOBFILE(path = tensor<string, []>("@model_path/weights/weight.bin"), offset = tensor<uint64, []>(64)))];
            tensor<fp16, [48]> model_model_0_conv_bias_to_fp16 = const()[name = tensor<string, []>("model_model_0_conv_bias_to_fp16"), val = tensor<fp16, [48]>(BLOBFILE(path = tensor<string, []>("@model_path/weights/weight.bin"), offset = tensor<uint64, []>(2752)))];
            tensor<fp16, [1, 3, 640, 640]> cast_9 = cast(dtype = image_to_fp16_dtype_0, x = image__scaled__)[name = tensor<string, []>("cast_9")];
            tensor<fp16, [1, 48, 320, 320]> input_1_cast_fp16 = conv(bias = model_model_0_conv_bias_to_fp16, dilations = var_62, groups = var_21, pad = input_1_pad_0, pad_type = input_1_pad_type_0, strides = var_60, weight = model_model_0_conv_weight_to_fp16, x = cast_9)[name = tensor<string, []>("input_1_cast_fp16")];
            tensor<fp16, [1, 48, 320, 320]> input_3_cast_fp16 = silu(x = input_1_cast_fp16)[name = tensor<string, []>("input_3_cast_fp16")];
            tensor<int32, [2]> var_69 = const()[name = tensor<string, []>("op_69"), val = tensor<int32, [2]>([2, 2])];
            tensor<int32, [2]> var_71 = const()[name = tensor<string, []>("op_71"), val = tensor<int32, [2]>([1, 1])];
            tensor<string, []> input_5_pad_type_0 = const()[name = tensor<string, []>("input_5_pad_type_0"), val = tensor<string, []>("custom")];
            tensor<int32, [4]> input_5_pad_0 = const()[name = tensor<string, []>("input_5_pad_0"), val = tensor<int32, [4]>([1, 1, 1, 1])];
            tensor<fp16, [96, 48, 3, 3]> model_model_1_conv_weight_to_fp16 = const()[name = tensor<string, []>("model_model_1_conv_weight_to_fp16"), val = tensor<fp16, [96, 48, 3, 3]>(BLOBFILE(path = tensor<string, []>("@model_path/weights/weight.bin"), offset = tensor<uint64, []>(2944)))];
            tensor<fp16, [96]> model_model_1_conv_bias_to_fp16 = const()[name = tensor<string, []>("model_model_1_conv_bias_to_fp16"), val = tensor<fp16, [96]>(BLOBFILE(path = tensor<string, []>("@model_path/weights/weight.bin"), offset = tensor<uint64, []>(85952)))];
            tensor<fp16, [1, 96, 160, 160]> input_5_cast_fp16 = conv(bias = model_model_1_conv_bias_to_fp16, dilations = var_71, groups = var_21, pad = input_5_pad_0, pad_type = input_5_pad_type_0, strides = var_69, weight = model_model_1_conv_weight_to_fp16, x = input_3_cast_fp16)[name = tensor<string, []>("input_5_cast_fp16")];
            tensor<fp16, [1, 96, 160, 160]> input_7_cast_fp16 = silu(x = input_5_cast_fp16)[name = tensor<string, []>("input_7_cast_fp16")];
            tensor<int32, [2]> var_84 = const()[name = tensor<string, []>("op_84"), val = tensor<int32, [2]>([1, 1])];
            tensor<int32, [2]> var_86 = const()[name = tensor<string, []>("op_86"), val = tensor<int32, [2]>([1, 1])];
            tensor<string, []> input_9_pad_type_0 = const()[name = tensor<string, []>("input_9_pad_type_0"), val = tensor<string, []>("custom")];
            tensor<int32, [4]> input_9_pad_0 = const()[name = tensor<string, []>("input_9_pad_0"), val = tensor<int32, [4]>([0, 0, 0, 0])];
            tensor<fp16, [96, 96, 1, 1]> model_model_2_cv1_conv_weight_to_fp16 = const()[name = tensor<string, []>("model_model_2_cv1_conv_weight_to_fp16"), val = tensor<fp16, [96, 96, 1, 1]>(BLOBFILE(path = tensor<string, []>("@model_path/weights/weight.bin"), offset = tensor<uint64, []>(86208)))];
            tensor<fp16, [96]> model_model_2_cv1_conv_bias_to_fp16 = const()[name = tensor<string, []>("model_model_2_cv1_conv_bias_to_fp16"), val = tensor<fp16, [96]>(BLOBFILE(path = tensor<string, []>("@model_path/weights/weight.bin"), offset = tensor<uint64, []>(104704)))];
            tensor<fp16, [1, 96, 160, 160]> input_9_cast_fp16 = conv(bias = model_model_2_cv1_conv_bias_to_fp16, dilations = var_86, groups = var_21, pad = input_9_pad_0, pad_type = input_9_pad_type_0, strides = var_84, weight = model_model_2_cv1_conv_weight_to_fp16, x = input_7_cast_fp16)[name = tensor<string, []>("input_9_cast_fp16")];
            tensor<fp16, [1, 96, 160, 160]> var_89_cast_fp16 = silu(x = input_9_cast_fp16)[name = tensor<string, []>("op_89_cast_fp16")];
            tensor<int32, [2]> var_90 = const()[name = tensor<string, []>("op_90"), val = tensor<int32, [2]>([48, 48])];
            tensor<int32, []> var_91_axis_0 = const()[name = tensor<string, []>("op_91_axis_0"), val = tensor<int32, []>(1)];
            tensor<fp16, [1, 48, 160, 160]> var_91_cast_fp16_0, tensor<fp16, [1, 48, 160, 160]> var_91_cast_fp16_1 = split(axis = var_91_axis_0, split_sizes = var_90, x = var_89_cast_fp16)[name = tensor<string, []>("op_91_cast_fp16")];
            tensor<int32, [2]> var_99 = const()[name = tensor<string, []>("op_99"), val = tensor<int32, [2]>([1, 1])];
            tensor<int32, [2]> var_101 = const()[name = tensor<string, []>("op_101"), val = tensor<int32, [2]>([1, 1])];
            tensor<string, []> input_13_pad_type_0 = const()[name = tensor<string, []>("input_13_pad_type_0"), val = tensor<string, []>("custom")];
            tensor<int32, [4]> input_13_pad_0 = const()[name = tensor<string, []>("input_13_pad_0"), val = tensor<int32, [4]>([1, 1, 1, 1])];
            tensor<fp16, [48, 48, 3, 3]> model_model_2_m_0_cv1_conv_weight_to_fp16 = const()[name = tensor<string, []>("model_model_2_m_0_cv1_conv_weight_to_fp16"), val = tensor<fp16, [48, 48, 3, 3]>(BLOBFILE(path = tensor<string, []>("@model_path/weights/weight.bin"), offset = tensor<uint64, []>(104960)))];
            tensor<fp16, [48]> model_model_2_m_0_cv1_conv_bias_to_fp16 = const()[name = tensor<string, []>("model_model_2_m_0_cv1_conv_bias_to_fp16"), val = tensor<fp16, [48]>(BLOBFILE(path = tensor<string, []>("@model_path/weights/weight.bin"), offset = tensor<uint64, []>(146496)))];
            tensor<fp16, [1, 48, 160, 160]> input_13_cast_fp16 = conv(bias = model_model_2_m_0_cv1_conv_bias_to_fp16, dilations = var_101, groups = var_21, pad = input_13_pad_0, pad_type = input_13_pad_type_0, strides = var_99, weight = model_model_2_m_0_cv1_conv_weight_to_fp16, x = var_91_cast_fp16_1)[name = tensor<string, []>("input_13_cast_fp16")];
            tensor<fp16, [1, 48, 160, 160]> input_15_cast_fp16 = silu(x = input_13_cast_fp16)[name = tensor<string, []>("input_15_cast_fp16")];
            tensor<int32, [2]> var_108 = const()[name = tensor<string, []>("op_108"), val = tensor<int32, [2]>([1, 1])];
            tensor<int32, [2]> var_110 = const()[name = tensor<string, []>("op_110"), val = tensor<int32, [2]>([1, 1])];
            tensor<string, []> input_17_pad_type_0 = const()[name = tensor<string, []>("input_17_pad_type_0"), val = tensor<string, []>("custom")];
            tensor<int32, [4]> input_17_pad_0 = const()[name = tensor<string, []>("input_17_pad_0"), val = tensor<int32, [4]>([1, 1, 1, 1])];
            tensor<fp16, [48, 48, 3, 3]> model_model_2_m_0_cv2_conv_weight_to_fp16 = const()[name = tensor<string, []>("model_model_2_m_0_cv2_conv_weight_to_fp16"), val = tensor<fp16, [48, 48, 3, 3]>(BLOBFILE(path = tensor<string, []>("@model_path/weights/weight.bin"), offset = tensor<uint64, []>(146688)))];
            tensor<fp16, [48]> model_model_2_m_0_cv2_conv_bias_to_fp16 = const()[name = tensor<string, []>("model_model_2_m_0_cv2_conv_bias_to_fp16"), val = tensor<fp16, [48]>(BLOBFILE(path = tensor<string, []>("@model_path/weights/weight.bin"), offset = tensor<uint64, []>(188224)))];
            tensor<fp16, [1, 48, 160, 160]> input_17_cast_fp16 = conv(bias = model_model_2_m_0_cv2_conv_bias_to_fp16, dilations = var_110, groups = var_21, pad = input_17_pad_0, pad_type = input_17_pad_type_0, strides = var_108, weight = model_model_2_m_0_cv2_conv_weight_to_fp16, x = input_15_cast_fp16)[name = tensor<string, []>("input_17_cast_fp16")];
            tensor<fp16, [1, 48, 160, 160]> var_113_cast_fp16 = silu(x = input_17_cast_fp16)[name = tensor<string, []>("op_113_cast_fp16")];
            tensor<fp16, [1, 48, 160, 160]> input_19_cast_fp16 = add(x = var_91_cast_fp16_1, y = var_113_cast_fp16)[name = tensor<string, []>("input_19_cast_fp16")];
            tensor<int32, [2]> var_120 = const()[name = tensor<string, []>("op_120"), val = tensor<int32, [2]>([1, 1])];
            tensor<int32, [2]> var_122 = const()[name = tensor<string, []>("op_122"), val = tensor<int32, [2]>([1, 1])];
            tensor<string, []> input_21_pad_type_0 = const()[name = tensor<string, []>("input_21_pad_type_0"), val = tensor<string, []>("custom")];
            tensor<int32, [4]> input_21_pad_0 = const()[name = tensor<string, []>("input_21_pad_0"), val = tensor<int32, [4]>([1, 1, 1, 1])];
            tensor<fp16, [48, 48, 3, 3]> model_model_2_m_1_cv1_conv_weight_to_fp16 = const()[name = tensor<string, []>("model_model_2_m_1_cv1_conv_weight_to_fp16"), val = tensor<fp16, [48, 48, 3, 3]>(BLOBFILE(path = tensor<string, []>("@model_path/weights/weight.bin"), offset = tensor<uint64, []>(188416)))];
            tensor<fp16, [48]> model_model_2_m_1_cv1_conv_bias_to_fp16 = const()[name = tensor<string, []>("model_model_2_m_1_cv1_conv_bias_to_fp16"), val = tensor<fp16, [48]>(BLOBFILE(path = tensor<string, []>("@model_path/weights/weight.bin"), offset = tensor<uint64, []>(229952)))];
            tensor<fp16, [1, 48, 160, 160]> input_21_cast_fp16 = conv(bias = model_model_2_m_1_cv1_conv_bias_to_fp16, dilations = var_122, groups = var_21, pad = input_21_pad_0, pad_type = input_21_pad_type_0, strides = var_120, weight = model_model_2_m_1_cv1_conv_weight_to_fp16, x = input_19_cast_fp16)[name = tensor<string, []>("input_21_cast_fp16")];
            tensor<fp16, [1, 48, 160, 160]> input_23_cast_fp16 = silu(x = input_21_cast_fp16)[name = tensor<string, []>("input_23_cast_fp16")];
            tensor<int32, [2]> var_129 = const()[name = tensor<string, []>("op_129"), val = tensor<int32, [2]>([1, 1])];
            tensor<int32, [2]> var_131 = const()[name = tensor<string, []>("op_131"), val = tensor<int32, [2]>([1, 1])];
            tensor<string, []> input_25_pad_type_0 = const()[name = tensor<string, []>("input_25_pad_type_0"), val = tensor<string, []>("custom")];
            tensor<int32, [4]> input_25_pad_0 = const()[name = tensor<string, []>("input_25_pad_0"), val = tensor<int32, [4]>([1, 1, 1, 1])];
            tensor<fp16, [48, 48, 3, 3]> model_model_2_m_1_cv2_conv_weight_to_fp16 = const()[name = tensor<string, []>("model_model_2_m_1_cv2_conv_weight_to_fp16"), val = tensor<fp16, [48, 48, 3, 3]>(BLOBFILE(path = tensor<string, []>("@model_path/weights/weight.bin"), offset = tensor<uint64, []>(230144)))];
            tensor<fp16, [48]> model_model_2_m_1_cv2_conv_bias_to_fp16 = const()[name = tensor<string, []>("model_model_2_m_1_cv2_conv_bias_to_fp16"), val = tensor<fp16, [48]>(BLOBFILE(path = tensor<string, []>("@model_path/weights/weight.bin"), offset = tensor<uint64, []>(271680)))];
            tensor<fp16, [1, 48, 160, 160]> input_25_cast_fp16 = conv(bias = model_model_2_m_1_cv2_conv_bias_to_fp16, dilations = var_131, groups = var_21, pad = input_25_pad_0, pad_type = input_25_pad_type_0, strides = var_129, weight = model_model_2_m_1_cv2_conv_weight_to_fp16, x = input_23_cast_fp16)[name = tensor<string, []>("input_25_cast_fp16")];
            tensor<fp16, [1, 48, 160, 160]> var_134_cast_fp16 = silu(x = input_25_cast_fp16)[name = tensor<string, []>("op_134_cast_fp16")];
            tensor<fp16, [1, 48, 160, 160]> var_135_cast_fp16 = add(x = input_19_cast_fp16, y = var_134_cast_fp16)[name = tensor<string, []>("op_135_cast_fp16")];
            tensor<bool, []> input_27_interleave_0 = const()[name = tensor<string, []>("input_27_interleave_0"), val = tensor<bool, []>(false)];
            tensor<fp16, [1, 192, 160, 160]> input_27_cast_fp16 = concat(axis = var_21, interleave = input_27_interleave_0, values = (var_91_cast_fp16_0, var_91_cast_fp16_1, input_19_cast_fp16, var_135_cast_fp16))[name = tensor<string, []>("input_27_cast_fp16")];
            tensor<int32, [2]> var_141 = const()[name = tensor<string, []>("op_141"), val = tensor<int32, [2]>([1, 1])];
            tensor<int32, [2]> var_143 = const()[name = tensor<string, []>("op_143"), val = tensor<int32, [2]>([1, 1])];
            tensor<string, []> input_29_pad_type_0 = const()[name = tensor<string, []>("input_29_pad_type_0"), val = tensor<string, []>("custom")];
            tensor<int32, [4]> input_29_pad_0 = const()[name = tensor<string, []>("input_29_pad_0"), val = tensor<int32, [4]>([0, 0, 0, 0])];
            tensor<fp16, [96, 192, 1, 1]> model_model_2_cv2_conv_weight_to_fp16 = const()[name = tensor<string, []>("model_model_2_cv2_conv_weight_to_fp16"), val = tensor<fp16, [96, 192, 1, 1]>(BLOBFILE(path = tensor<string, []>("@model_path/weights/weight.bin"), offset = tensor<uint64, []>(271872)))];
            tensor<fp16, [96]> model_model_2_cv2_conv_bias_to_fp16 = const()[name = tensor<string, []>("model_model_2_cv2_conv_bias_to_fp16"), val = tensor<fp16, [96]>(BLOBFILE(path = tensor<string, []>("@model_path/weights/weight.bin"), offset = tensor<uint64, []>(308800)))];
            tensor<fp16, [1, 96, 160, 160]> input_29_cast_fp16 = conv(bias = model_model_2_cv2_conv_bias_to_fp16, dilations = var_143, groups = var_21, pad = input_29_pad_0, pad_type = input_29_pad_type_0, strides = var_141, weight = model_model_2_cv2_conv_weight_to_fp16, x = input_27_cast_fp16)[name = tensor<string, []>("input_29_cast_fp16")];
            tensor<fp16, [1, 96, 160, 160]> input_31_cast_fp16 = silu(x = input_29_cast_fp16)[name = tensor<string, []>("input_31_cast_fp16")];
            tensor<int32, [2]> var_150 = const()[name = tensor<string, []>("op_150"), val = tensor<int32, [2]>([2, 2])];
            tensor<int32, [2]> var_152 = const()[name = tensor<string, []>("op_152"), val = tensor<int32, [2]>([1, 1])];
            tensor<string, []> input_33_pad_type_0 = const()[name = tensor<string, []>("input_33_pad_type_0"), val = tensor<string, []>("custom")];
            tensor<int32, [4]> input_33_pad_0 = const()[name = tensor<string, []>("input_33_pad_0"), val = tensor<int32, [4]>([1, 1, 1, 1])];
            tensor<fp16, [192, 96, 3, 3]> model_model_3_conv_weight_to_fp16 = const()[name = tensor<string, []>("model_model_3_conv_weight_to_fp16"), val = tensor<fp16, [192, 96, 3, 3]>(BLOBFILE(path = tensor<string, []>("@model_path/weights/weight.bin"), offset = tensor<uint64, []>(309056)))];
            tensor<fp16, [192]> model_model_3_conv_bias_to_fp16 = const()[name = tensor<string, []>("model_model_3_conv_bias_to_fp16"), val = tensor<fp16, [192]>(BLOBFILE(path = tensor<string, []>("@model_path/weights/weight.bin"), offset = tensor<uint64, []>(640896)))];
            tensor<fp16, [1, 192, 80, 80]> input_33_cast_fp16 = conv(bias = model_model_3_conv_bias_to_fp16, dilations = var_152, groups = var_21, pad = input_33_pad_0, pad_type = input_33_pad_type_0, strides = var_150, weight = model_model_3_conv_weight_to_fp16, x = input_31_cast_fp16)[name = tensor<string, []>("input_33_cast_fp16")];
            tensor<fp16, [1, 192, 80, 80]> input_35_cast_fp16 = silu(x = input_33_cast_fp16)[name = tensor<string, []>("input_35_cast_fp16")];
            tensor<int32, [2]> var_169 = const()[name = tensor<string, []>("op_169"), val = tensor<int32, [2]>([1, 1])];
            tensor<int32, [2]> var_171 = const()[name = tensor<string, []>("op_171"), val = tensor<int32, [2]>([1, 1])];
            tensor<string, []> input_37_pad_type_0 = const()[name = tensor<string, []>("input_37_pad_type_0"), val = tensor<string, []>("custom")];
            tensor<int32, [4]> input_37_pad_0 = const()[name = tensor<string, []>("input_37_pad_0"), val = tensor<int32, [4]>([0, 0, 0, 0])];
            tensor<fp16, [192, 192, 1, 1]> model_model_4_cv1_conv_weight_to_fp16 = const()[name = tensor<string, []>("model_model_4_cv1_conv_weight_to_fp16"), val = tensor<fp16, [192, 192, 1, 1]>(BLOBFILE(path = tensor<string, []>("@model_path/weights/weight.bin"), offset = tensor<uint64, []>(641344)))];
            tensor<fp16, [192]> model_model_4_cv1_conv_bias_to_fp16 = const()[name = tensor<string, []>("model_model_4_cv1_conv_bias_to_fp16"), val = tensor<fp16, [192]>(BLOBFILE(path = tensor<string, []>("@model_path/weights/weight.bin"), offset = tensor<uint64, []>(715136)))];
            tensor<fp16, [1, 192, 80, 80]> input_37_cast_fp16 = conv(bias = model_model_4_cv1_conv_bias_to_fp16, dilations = var_171, groups = var_21, pad = input_37_pad_0, pad_type = input_37_pad_type_0, strides = var_169, weight = model_model_4_cv1_conv_weight_to_fp16, x = input_35_cast_fp16)[name = tensor<string, []>("input_37_cast_fp16")];
            tensor<fp16, [1, 192, 80, 80]> var_174_cast_fp16 = silu(x = input_37_cast_fp16)[name = tensor<string, []>("op_174_cast_fp16")];
            tensor<int32, [2]> var_175 = const()[name = tensor<string, []>("op_175"), val = tensor<int32, [2]>([96, 96])];
            tensor<int32, []> var_176_axis_0 = const()[name = tensor<string, []>("op_176_axis_0"), val = tensor<int32, []>(1)];
            tensor<fp16, [1, 96, 80, 80]> var_176_cast_fp16_0, tensor<fp16, [1, 96, 80, 80]> var_176_cast_fp16_1 = split(axis = var_176_axis_0, split_sizes = var_175, x = var_174_cast_fp16)[name = tensor<string, []>("op_176_cast_fp16")];
            tensor<int32, [2]> var_184 = const()[name = tensor<string, []>("op_184"), val = tensor<int32, [2]>([1, 1])];
            tensor<int32, [2]> var_186 = const()[name = tensor<string, []>("op_186"), val = tensor<int32, [2]>([1, 1])];
            tensor<string, []> input_41_pad_type_0 = const()[name = tensor<string, []>("input_41_pad_type_0"), val = tensor<string, []>("custom")];
            tensor<int32, [4]> input_41_pad_0 = const()[name = tensor<string, []>("input_41_pad_0"), val = tensor<int32, [4]>([1, 1, 1, 1])];
            tensor<fp16, [96, 96, 3, 3]> model_model_4_m_0_cv1_conv_weight_to_fp16 = const()[name = tensor<string, []>("model_model_4_m_0_cv1_conv_weight_to_fp16"), val = tensor<fp16, [96, 96, 3, 3]>(BLOBFILE(path = tensor<string, []>("@model_path/weights/weight.bin"), offset = tensor<uint64, []>(715584)))];
            tensor<fp16, [96]> model_model_4_m_0_cv1_conv_bias_to_fp16 = const()[name = tensor<string, []>("model_model_4_m_0_cv1_conv_bias_to_fp16"), val = tensor<fp16, [96]>(BLOBFILE(path = tensor<string, []>("@model_path/weights/weight.bin"), offset = tensor<uint64, []>(881536)))];
            tensor<fp16, [1, 96, 80, 80]> input_41_cast_fp16 = conv(bias = model_model_4_m_0_cv1_conv_bias_to_fp16, dilations = var_186, groups = var_21, pad = input_41_pad_0, pad_type = input_41_pad_type_0, strides = var_184, weight = model_model_4_m_0_cv1_conv_weight_to_fp16, x = var_176_cast_fp16_1)[name = tensor<string, []>("input_41_cast_fp16")];
            tensor<fp16, [1, 96, 80, 80]> input_43_cast_fp16 = silu(x = input_41_cast_fp16)[name = tensor<string, []>("input_43_cast_fp16")];
            tensor<int32, [2]> var_193 = const()[name = tensor<string, []>("op_193"), val = tensor<int32, [2]>([1, 1])];
            tensor<int32, [2]> var_195 = const()[name = tensor<string, []>("op_195"), val = tensor<int32, [2]>([1, 1])];
            tensor<string, []> input_45_pad_type_0 = const()[name = tensor<string, []>("input_45_pad_type_0"), val = tensor<string, []>("custom")];
            tensor<int32, [4]> input_45_pad_0 = const()[name = tensor<string, []>("input_45_pad_0"), val = tensor<int32, [4]>([1, 1, 1, 1])];
            tensor<fp16, [96, 96, 3, 3]> model_model_4_m_0_cv2_conv_weight_to_fp16 = const()[name = tensor<string, []>("model_model_4_m_0_cv2_conv_weight_to_fp16"), val = tensor<fp16, [96, 96, 3, 3]>(BLOBFILE(path = tensor<string, []>("@model_path/weights/weight.bin"), offset = tensor<uint64, []>(881792)))];
            tensor<fp16, [96]> model_model_4_m_0_cv2_conv_bias_to_fp16 = const()[name = tensor<string, []>("model_model_4_m_0_cv2_conv_bias_to_fp16"), val = tensor<fp16, [96]>(BLOBFILE(path = tensor<string, []>("@model_path/weights/weight.bin"), offset = tensor<uint64, []>(1047744)))];
            tensor<fp16, [1, 96, 80, 80]> input_45_cast_fp16 = conv(bias = model_model_4_m_0_cv2_conv_bias_to_fp16, dilations = var_195, groups = var_21, pad = input_45_pad_0, pad_type = input_45_pad_type_0, strides = var_193, weight = model_model_4_m_0_cv2_conv_weight_to_fp16, x = input_43_cast_fp16)[name = tensor<string, []>("input_45_cast_fp16")];
            tensor<fp16, [1, 96, 80, 80]> var_198_cast_fp16 = silu(x = input_45_cast_fp16)[name = tensor<string, []>("op_198_cast_fp16")];
            tensor<fp16, [1, 96, 80, 80]> input_47_cast_fp16 = add(x = var_176_cast_fp16_1, y = var_198_cast_fp16)[name = tensor<string, []>("input_47_cast_fp16")];
            tensor<int32, [2]> var_205 = const()[name = tensor<string, []>("op_205"), val = tensor<int32, [2]>([1, 1])];
            tensor<int32, [2]> var_207 = const()[name = tensor<string, []>("op_207"), val = tensor<int32, [2]>([1, 1])];
            tensor<string, []> input_49_pad_type_0 = const()[name = tensor<string, []>("input_49_pad_type_0"), val = tensor<string, []>("custom")];
            tensor<int32, [4]> input_49_pad_0 = const()[name = tensor<string, []>("input_49_pad_0"), val = tensor<int32, [4]>([1, 1, 1, 1])];
            tensor<fp16, [96, 96, 3, 3]> model_model_4_m_1_cv1_conv_weight_to_fp16 = const()[name = tensor<string, []>("model_model_4_m_1_cv1_conv_weight_to_fp16"), val = tensor<fp16, [96, 96, 3, 3]>(BLOBFILE(path = tensor<string, []>("@model_path/weights/weight.bin"), offset = tensor<uint64, []>(1048000)))];
            tensor<fp16, [96]> model_model_4_m_1_cv1_conv_bias_to_fp16 = const()[name = tensor<string, []>("model_model_4_m_1_cv1_conv_bias_to_fp16"), val = tensor<fp16, [96]>(BLOBFILE(path = tensor<string, []>("@model_path/weights/weight.bin"), offset = tensor<uint64, []>(1213952)))];
            tensor<fp16, [1, 96, 80, 80]> input_49_cast_fp16 = conv(bias = model_model_4_m_1_cv1_conv_bias_to_fp16, dilations = var_207, groups = var_21, pad = input_49_pad_0, pad_type = input_49_pad_type_0, strides = var_205, weight = model_model_4_m_1_cv1_conv_weight_to_fp16, x = input_47_cast_fp16)[name = tensor<string, []>("input_49_cast_fp16")];
            tensor<fp16, [1, 96, 80, 80]> input_51_cast_fp16 = silu(x = input_49_cast_fp16)[name = tensor<string, []>("input_51_cast_fp16")];
            tensor<int32, [2]> var_214 = const()[name = tensor<string, []>("op_214"), val = tensor<int32, [2]>([1, 1])];
            tensor<int32, [2]> var_216 = const()[name = tensor<string, []>("op_216"), val = tensor<int32, [2]>([1, 1])];
            tensor<string, []> input_53_pad_type_0 = const()[name = tensor<string, []>("input_53_pad_type_0"), val = tensor<string, []>("custom")];
            tensor<int32, [4]> input_53_pad_0 = const()[name = tensor<string, []>("input_53_pad_0"), val = tensor<int32, [4]>([1, 1, 1, 1])];
            tensor<fp16, [96, 96, 3, 3]> model_model_4_m_1_cv2_conv_weight_to_fp16 = const()[name = tensor<string, []>("model_model_4_m_1_cv2_conv_weight_to_fp16"), val = tensor<fp16, [96, 96, 3, 3]>(BLOBFILE(path = tensor<string, []>("@model_path/weights/weight.bin"), offset = tensor<uint64, []>(1214208)))];
            tensor<fp16, [96]> model_model_4_m_1_cv2_conv_bias_to_fp16 = const()[name = tensor<string, []>("model_model_4_m_1_cv2_conv_bias_to_fp16"), val = tensor<fp16, [96]>(BLOBFILE(path = tensor<string, []>("@model_path/weights/weight.bin"), offset = tensor<uint64, []>(1380160)))];
            tensor<fp16, [1, 96, 80, 80]> input_53_cast_fp16 = conv(bias = model_model_4_m_1_cv2_conv_bias_to_fp16, dilations = var_216, groups = var_21, pad = input_53_pad_0, pad_type = input_53_pad_type_0, strides = var_214, weight = model_model_4_m_1_cv2_conv_weight_to_fp16, x = input_51_cast_fp16)[name = tensor<string, []>("input_53_cast_fp16")];
            tensor<fp16, [1, 96, 80, 80]> var_219_cast_fp16 = silu(x = input_53_cast_fp16)[name = tensor<string, []>("op_219_cast_fp16")];
            tensor<fp16, [1, 96, 80, 80]> input_55_cast_fp16 = add(x = input_47_cast_fp16, y = var_219_cast_fp16)[name = tensor<string, []>("input_55_cast_fp16")];
            tensor<int32, [2]> var_226 = const()[name = tensor<string, []>("op_226"), val = tensor<int32, [2]>([1, 1])];
            tensor<int32, [2]> var_228 = const()[name = tensor<string, []>("op_228"), val = tensor<int32, [2]>([1, 1])];
            tensor<string, []> input_57_pad_type_0 = const()[name = tensor<string, []>("input_57_pad_type_0"), val = tensor<string, []>("custom")];
            tensor<int32, [4]> input_57_pad_0 = const()[name = tensor<string, []>("input_57_pad_0"), val = tensor<int32, [4]>([1, 1, 1, 1])];
            tensor<fp16, [96, 96, 3, 3]> model_model_4_m_2_cv1_conv_weight_to_fp16 = const()[name = tensor<string, []>("model_model_4_m_2_cv1_conv_weight_to_fp16"), val = tensor<fp16, [96, 96, 3, 3]>(BLOBFILE(path = tensor<string, []>("@model_path/weights/weight.bin"), offset = tensor<uint64, []>(1380416)))];
            tensor<fp16, [96]> model_model_4_m_2_cv1_conv_bias_to_fp16 = const()[name = tensor<string, []>("model_model_4_m_2_cv1_conv_bias_to_fp16"), val = tensor<fp16, [96]>(BLOBFILE(path = tensor<string, []>("@model_path/weights/weight.bin"), offset = tensor<uint64, []>(1546368)))];
            tensor<fp16, [1, 96, 80, 80]> input_57_cast_fp16 = conv(bias = model_model_4_m_2_cv1_conv_bias_to_fp16, dilations = var_228, groups = var_21, pad = input_57_pad_0, pad_type = input_57_pad_type_0, strides = var_226, weight = model_model_4_m_2_cv1_conv_weight_to_fp16, x = input_55_cast_fp16)[name = tensor<string, []>("input_57_cast_fp16")];
            tensor<fp16, [1, 96, 80, 80]> input_59_cast_fp16 = silu(x = input_57_cast_fp16)[name = tensor<string, []>("input_59_cast_fp16")];
            tensor<int32, [2]> var_235 = const()[name = tensor<string, []>("op_235"), val = tensor<int32, [2]>([1, 1])];
            tensor<int32, [2]> var_237 = const()[name = tensor<string, []>("op_237"), val = tensor<int32, [2]>([1, 1])];
            tensor<string, []> input_61_pad_type_0 = const()[name = tensor<string, []>("input_61_pad_type_0"), val = tensor<string, []>("custom")];
            tensor<int32, [4]> input_61_pad_0 = const()[name = tensor<string, []>("input_61_pad_0"), val = tensor<int32, [4]>([1, 1, 1, 1])];
            tensor<fp16, [96, 96, 3, 3]> model_model_4_m_2_cv2_conv_weight_to_fp16 = const()[name = tensor<string, []>("model_model_4_m_2_cv2_conv_weight_to_fp16"), val = tensor<fp16, [96, 96, 3, 3]>(BLOBFILE(path = tensor<string, []>("@model_path/weights/weight.bin"), offset = tensor<uint64, []>(1546624)))];
            tensor<fp16, [96]> model_model_4_m_2_cv2_conv_bias_to_fp16 = const()[name = tensor<string, []>("model_model_4_m_2_cv2_conv_bias_to_fp16"), val = tensor<fp16, [96]>(BLOBFILE(path = tensor<string, []>("@model_path/weights/weight.bin"), offset = tensor<uint64, []>(1712576)))];
            tensor<fp16, [1, 96, 80, 80]> input_61_cast_fp16 = conv(bias = model_model_4_m_2_cv2_conv_bias_to_fp16, dilations = var_237, groups = var_21, pad = input_61_pad_0, pad_type = input_61_pad_type_0, strides = var_235, weight = model_model_4_m_2_cv2_conv_weight_to_fp16, x = input_59_cast_fp16)[name = tensor<string, []>("input_61_cast_fp16")];
            tensor<fp16, [1, 96, 80, 80]> var_240_cast_fp16 = silu(x = input_61_cast_fp16)[name = tensor<string, []>("op_240_cast_fp16")];
            tensor<fp16, [1, 96, 80, 80]> input_63_cast_fp16 = add(x = input_55_cast_fp16, y = var_240_cast_fp16)[name = tensor<string, []>("input_63_cast_fp16")];
            tensor<int32, [2]> var_247 = const()[name = tensor<string, []>("op_247"), val = tensor<int32, [2]>([1, 1])];
            tensor<int32, [2]> var_249 = const()[name = tensor<string, []>("op_249"), val = tensor<int32, [2]>([1, 1])];
            tensor<string, []> input_65_pad_type_0 = const()[name = tensor<string, []>("input_65_pad_type_0"), val = tensor<string, []>("custom")];
            tensor<int32, [4]> input_65_pad_0 = const()[name = tensor<string, []>("input_65_pad_0"), val = tensor<int32, [4]>([1, 1, 1, 1])];
            tensor<fp16, [96, 96, 3, 3]> model_model_4_m_3_cv1_conv_weight_to_fp16 = const()[name = tensor<string, []>("model_model_4_m_3_cv1_conv_weight_to_fp16"), val = tensor<fp16, [96, 96, 3, 3]>(BLOBFILE(path = tensor<string, []>("@model_path/weights/weight.bin"), offset = tensor<uint64, []>(1712832)))];
            tensor<fp16, [96]> model_model_4_m_3_cv1_conv_bias_to_fp16 = const()[name = tensor<string, []>("model_model_4_m_3_cv1_conv_bias_to_fp16"), val = tensor<fp16, [96]>(BLOBFILE(path = tensor<string, []>("@model_path/weights/weight.bin"), offset = tensor<uint64, []>(1878784)))];
            tensor<fp16, [1, 96, 80, 80]> input_65_cast_fp16 = conv(bias = model_model_4_m_3_cv1_conv_bias_to_fp16, dilations = var_249, groups = var_21, pad = input_65_pad_0, pad_type = input_65_pad_type_0, strides = var_247, weight = model_model_4_m_3_cv1_conv_weight_to_fp16, x = input_63_cast_fp16)[name = tensor<string, []>("input_65_cast_fp16")];
            tensor<fp16, [1, 96, 80, 80]> input_67_cast_fp16 = silu(x = input_65_cast_fp16)[name = tensor<string, []>("input_67_cast_fp16")];
            tensor<int32, [2]> var_256 = const()[name = tensor<string, []>("op_256"), val = tensor<int32, [2]>([1, 1])];
            tensor<int32, [2]> var_258 = const()[name = tensor<string, []>("op_258"), val = tensor<int32, [2]>([1, 1])];
            tensor<string, []> input_69_pad_type_0 = const()[name = tensor<string, []>("input_69_pad_type_0"), val = tensor<string, []>("custom")];
            tensor<int32, [4]> input_69_pad_0 = const()[name = tensor<string, []>("input_69_pad_0"), val = tensor<int32, [4]>([1, 1, 1, 1])];
            tensor<fp16, [96, 96, 3, 3]> model_model_4_m_3_cv2_conv_weight_to_fp16 = const()[name = tensor<string, []>("model_model_4_m_3_cv2_conv_weight_to_fp16"), val = tensor<fp16, [96, 96, 3, 3]>(BLOBFILE(path = tensor<string, []>("@model_path/weights/weight.bin"), offset = tensor<uint64, []>(1879040)))];
            tensor<fp16, [96]> model_model_4_m_3_cv2_conv_bias_to_fp16 = const()[name = tensor<string, []>("model_model_4_m_3_cv2_conv_bias_to_fp16"), val = tensor<fp16, [96]>(BLOBFILE(path = tensor<string, []>("@model_path/weights/weight.bin"), offset = tensor<uint64, []>(2044992)))];
            tensor<fp16, [1, 96, 80, 80]> input_69_cast_fp16 = conv(bias = model_model_4_m_3_cv2_conv_bias_to_fp16, dilations = var_258, groups = var_21, pad = input_69_pad_0, pad_type = input_69_pad_type_0, strides = var_256, weight = model_model_4_m_3_cv2_conv_weight_to_fp16, x = input_67_cast_fp16)[name = tensor<string, []>("input_69_cast_fp16")];
            tensor<fp16, [1, 96, 80, 80]> var_261_cast_fp16 = silu(x = input_69_cast_fp16)[name = tensor<string, []>("op_261_cast_fp16")];
            tensor<fp16, [1, 96, 80, 80]> var_262_cast_fp16 = add(x = input_63_cast_fp16, y = var_261_cast_fp16)[name = tensor<string, []>("op_262_cast_fp16")];
            tensor<bool, []> input_71_interleave_0 = const()[name = tensor<string, []>("input_71_interleave_0"), val = tensor<bool, []>(false)];
            tensor<fp16, [1, 576, 80, 80]> input_71_cast_fp16 = concat(axis = var_21, interleave = input_71_interleave_0, values = (var_176_cast_fp16_0, var_176_cast_fp16_1, input_47_cast_fp16, input_55_cast_fp16, input_63_cast_fp16, var_262_cast_fp16))[name = tensor<string, []>("input_71_cast_fp16")];
            tensor<int32, [2]> var_268 = const()[name = tensor<string, []>("op_268"), val = tensor<int32, [2]>([1, 1])];
            tensor<int32, [2]> var_270 = const()[name = tensor<string, []>("op_270"), val = tensor<int32, [2]>([1, 1])];
            tensor<string, []> input_73_pad_type_0 = const()[name = tensor<string, []>("input_73_pad_type_0"), val = tensor<string, []>("custom")];
            tensor<int32, [4]> input_73_pad_0 = const()[name = tensor<string, []>("input_73_pad_0"), val = tensor<int32, [4]>([0, 0, 0, 0])];
            tensor<fp16, [192, 576, 1, 1]> model_model_4_cv2_conv_weight_to_fp16 = const()[name = tensor<string, []>("model_model_4_cv2_conv_weight_to_fp16"), val = tensor<fp16, [192, 576, 1, 1]>(BLOBFILE(path = tensor<string, []>("@model_path/weights/weight.bin"), offset = tensor<uint64, []>(2045248)))];
            tensor<fp16, [192]> model_model_4_cv2_conv_bias_to_fp16 = const()[name = tensor<string, []>("model_model_4_cv2_conv_bias_to_fp16"), val = tensor<fp16, [192]>(BLOBFILE(path = tensor<string, []>("@model_path/weights/weight.bin"), offset = tensor<uint64, []>(2266496)))];
            tensor<fp16, [1, 192, 80, 80]> input_73_cast_fp16 = conv(bias = model_model_4_cv2_conv_bias_to_fp16, dilations = var_270, groups = var_21, pad = input_73_pad_0, pad_type = input_73_pad_type_0, strides = var_268, weight = model_model_4_cv2_conv_weight_to_fp16, x = input_71_cast_fp16)[name = tensor<string, []>("input_73_cast_fp16")];
            tensor<fp16, [1, 192, 80, 80]> input_75_cast_fp16 = silu(x = input_73_cast_fp16)[name = tensor<string, []>("input_75_cast_fp16")];
            tensor<int32, [2]> var_277 = const()[name = tensor<string, []>("op_277"), val = tensor<int32, [2]>([2, 2])];
            tensor<int32, [2]> var_279 = const()[name = tensor<string, []>("op_279"), val = tensor<int32, [2]>([1, 1])];
            tensor<string, []> input_77_pad_type_0 = const()[name = tensor<string, []>("input_77_pad_type_0"), val = tensor<string, []>("custom")];
            tensor<int32, [4]> input_77_pad_0 = const()[name = tensor<string, []>("input_77_pad_0"), val = tensor<int32, [4]>([1, 1, 1, 1])];
            tensor<fp16, [384, 192, 3, 3]> model_model_5_conv_weight_to_fp16 = const()[name = tensor<string, []>("model_model_5_conv_weight_to_fp16"), val = tensor<fp16, [384, 192, 3, 3]>(BLOBFILE(path = tensor<string, []>("@model_path/weights/weight.bin"), offset = tensor<uint64, []>(2266944)))];
            tensor<fp16, [384]> model_model_5_conv_bias_to_fp16 = const()[name = tensor<string, []>("model_model_5_conv_bias_to_fp16"), val = tensor<fp16, [384]>(BLOBFILE(path = tensor<string, []>("@model_path/weights/weight.bin"), offset = tensor<uint64, []>(3594112)))];
            tensor<fp16, [1, 384, 40, 40]> input_77_cast_fp16 = conv(bias = model_model_5_conv_bias_to_fp16, dilations = var_279, groups = var_21, pad = input_77_pad_0, pad_type = input_77_pad_type_0, strides = var_277, weight = model_model_5_conv_weight_to_fp16, x = input_75_cast_fp16)[name = tensor<string, []>("input_77_cast_fp16")];
            tensor<fp16, [1, 384, 40, 40]> input_79_cast_fp16 = silu(x = input_77_cast_fp16)[name = tensor<string, []>("input_79_cast_fp16")];
            tensor<int32, [2]> var_296 = const()[name = tensor<string, []>("op_296"), val = tensor<int32, [2]>([1, 1])];
            tensor<int32, [2]> var_298 = const()[name = tensor<string, []>("op_298"), val = tensor<int32, [2]>([1, 1])];
            tensor<string, []> input_81_pad_type_0 = const()[name = tensor<string, []>("input_81_pad_type_0"), val = tensor<string, []>("custom")];
            tensor<int32, [4]> input_81_pad_0 = const()[name = tensor<string, []>("input_81_pad_0"), val = tensor<int32, [4]>([0, 0, 0, 0])];
            tensor<fp16, [384, 384, 1, 1]> model_model_6_cv1_conv_weight_to_fp16 = const()[name = tensor<string, []>("model_model_6_cv1_conv_weight_to_fp16"), val = tensor<fp16, [384, 384, 1, 1]>(BLOBFILE(path = tensor<string, []>("@model_path/weights/weight.bin"), offset = tensor<uint64, []>(3594944)))];
            tensor<fp16, [384]> model_model_6_cv1_conv_bias_to_fp16 = const()[name = tensor<string, []>("model_model_6_cv1_conv_bias_to_fp16"), val = tensor<fp16, [384]>(BLOBFILE(path = tensor<string, []>("@model_path/weights/weight.bin"), offset = tensor<uint64, []>(3889920)))];
            tensor<fp16, [1, 384, 40, 40]> input_81_cast_fp16 = conv(bias = model_model_6_cv1_conv_bias_to_fp16, dilations = var_298, groups = var_21, pad = input_81_pad_0, pad_type = input_81_pad_type_0, strides = var_296, weight = model_model_6_cv1_conv_weight_to_fp16, x = input_79_cast_fp16)[name = tensor<string, []>("input_81_cast_fp16")];
            tensor<fp16, [1, 384, 40, 40]> var_301_cast_fp16 = silu(x = input_81_cast_fp16)[name = tensor<string, []>("op_301_cast_fp16")];
            tensor<int32, [2]> var_302 = const()[name = tensor<string, []>("op_302"), val = tensor<int32, [2]>([192, 192])];
            tensor<int32, []> var_303_axis_0 = const()[name = tensor<string, []>("op_303_axis_0"), val = tensor<int32, []>(1)];
            tensor<fp16, [1, 192, 40, 40]> var_303_cast_fp16_0, tensor<fp16, [1, 192, 40, 40]> var_303_cast_fp16_1 = split(axis = var_303_axis_0, split_sizes = var_302, x = var_301_cast_fp16)[name = tensor<string, []>("op_303_cast_fp16")];
            tensor<int32, [2]> var_311 = const()[name = tensor<string, []>("op_311"), val = tensor<int32, [2]>([1, 1])];
            tensor<int32, [2]> var_313 = const()[name = tensor<string, []>("op_313"), val = tensor<int32, [2]>([1, 1])];
            tensor<string, []> input_85_pad_type_0 = const()[name = tensor<string, []>("input_85_pad_type_0"), val = tensor<string, []>("custom")];
            tensor<int32, [4]> input_85_pad_0 = const()[name = tensor<string, []>("input_85_pad_0"), val = tensor<int32, [4]>([1, 1, 1, 1])];
            tensor<fp16, [192, 192, 3, 3]> model_model_6_m_0_cv1_conv_weight_to_fp16 = const()[name = tensor<string, []>("model_model_6_m_0_cv1_conv_weight_to_fp16"), val = tensor<fp16, [192, 192, 3, 3]>(BLOBFILE(path = tensor<string, []>("@model_path/weights/weight.bin"), offset = tensor<uint64, []>(3890752)))];
            tensor<fp16, [192]> model_model_6_m_0_cv1_conv_bias_to_fp16 = const()[name = tensor<string, []>("model_model_6_m_0_cv1_conv_bias_to_fp16"), val = tensor<fp16, [192]>(BLOBFILE(path = tensor<string, []>("@model_path/weights/weight.bin"), offset = tensor<uint64, []>(4554368)))];
            tensor<fp16, [1, 192, 40, 40]> input_85_cast_fp16 = conv(bias = model_model_6_m_0_cv1_conv_bias_to_fp16, dilations = var_313, groups = var_21, pad = input_85_pad_0, pad_type = input_85_pad_type_0, strides = var_311, weight = model_model_6_m_0_cv1_conv_weight_to_fp16, x = var_303_cast_fp16_1)[name = tensor<string, []>("input_85_cast_fp16")];
            tensor<fp16, [1, 192, 40, 40]> input_87_cast_fp16 = silu(x = input_85_cast_fp16)[name = tensor<string, []>("input_87_cast_fp16")];
            tensor<int32, [2]> var_320 = const()[name = tensor<string, []>("op_320"), val = tensor<int32, [2]>([1, 1])];
            tensor<int32, [2]> var_322 = const()[name = tensor<string, []>("op_322"), val = tensor<int32, [2]>([1, 1])];
            tensor<string, []> input_89_pad_type_0 = const()[name = tensor<string, []>("input_89_pad_type_0"), val = tensor<string, []>("custom")];
            tensor<int32, [4]> input_89_pad_0 = const()[name = tensor<string, []>("input_89_pad_0"), val = tensor<int32, [4]>([1, 1, 1, 1])];
            tensor<fp16, [192, 192, 3, 3]> model_model_6_m_0_cv2_conv_weight_to_fp16 = const()[name = tensor<string, []>("model_model_6_m_0_cv2_conv_weight_to_fp16"), val = tensor<fp16, [192, 192, 3, 3]>(BLOBFILE(path = tensor<string, []>("@model_path/weights/weight.bin"), offset = tensor<uint64, []>(4554816)))];
            tensor<fp16, [192]> model_model_6_m_0_cv2_conv_bias_to_fp16 = const()[name = tensor<string, []>("model_model_6_m_0_cv2_conv_bias_to_fp16"), val = tensor<fp16, [192]>(BLOBFILE(path = tensor<string, []>("@model_path/weights/weight.bin"), offset = tensor<uint64, []>(5218432)))];
            tensor<fp16, [1, 192, 40, 40]> input_89_cast_fp16 = conv(bias = model_model_6_m_0_cv2_conv_bias_to_fp16, dilations = var_322, groups = var_21, pad = input_89_pad_0, pad_type = input_89_pad_type_0, strides = var_320, weight = model_model_6_m_0_cv2_conv_weight_to_fp16, x = input_87_cast_fp16)[name = tensor<string, []>("input_89_cast_fp16")];
            tensor<fp16, [1, 192, 40, 40]> var_325_cast_fp16 = silu(x = input_89_cast_fp16)[name = tensor<string, []>("op_325_cast_fp16")];
            tensor<fp16, [1, 192, 40, 40]> input_91_cast_fp16 = add(x = var_303_cast_fp16_1, y = var_325_cast_fp16)[name = tensor<string, []>("input_91_cast_fp16")];
            tensor<int32, [2]> var_332 = const()[name = tensor<string, []>("op_332"), val = tensor<int32, [2]>([1, 1])];
            tensor<int32, [2]> var_334 = const()[name = tensor<string, []>("op_334"), val = tensor<int32, [2]>([1, 1])];
            tensor<string, []> input_93_pad_type_0 = const()[name = tensor<string, []>("input_93_pad_type_0"), val = tensor<string, []>("custom")];
            tensor<int32, [4]> input_93_pad_0 = const()[name = tensor<string, []>("input_93_pad_0"), val = tensor<int32, [4]>([1, 1, 1, 1])];
            tensor<fp16, [192, 192, 3, 3]> model_model_6_m_1_cv1_conv_weight_to_fp16 = const()[name = tensor<string, []>("model_model_6_m_1_cv1_conv_weight_to_fp16"), val = tensor<fp16, [192, 192, 3, 3]>(BLOBFILE(path = tensor<string, []>("@model_path/weights/weight.bin"), offset = tensor<uint64, []>(5218880)))];
            tensor<fp16, [192]> model_model_6_m_1_cv1_conv_bias_to_fp16 = const()[name = tensor<string, []>("model_model_6_m_1_cv1_conv_bias_to_fp16"), val = tensor<fp16, [192]>(BLOBFILE(path = tensor<string, []>("@model_path/weights/weight.bin"), offset = tensor<uint64, []>(5882496)))];
            tensor<fp16, [1, 192, 40, 40]> input_93_cast_fp16 = conv(bias = model_model_6_m_1_cv1_conv_bias_to_fp16, dilations = var_334, groups = var_21, pad = input_93_pad_0, pad_type = input_93_pad_type_0, strides = var_332, weight = model_model_6_m_1_cv1_conv_weight_to_fp16, x = input_91_cast_fp16)[name = tensor<string, []>("input_93_cast_fp16")];
            tensor<fp16, [1, 192, 40, 40]> input_95_cast_fp16 = silu(x = input_93_cast_fp16)[name = tensor<string, []>("input_95_cast_fp16")];
            tensor<int32, [2]> var_341 = const()[name = tensor<string, []>("op_341"), val = tensor<int32, [2]>([1, 1])];
            tensor<int32, [2]> var_343 = const()[name = tensor<string, []>("op_343"), val = tensor<int32, [2]>([1, 1])];
            tensor<string, []> input_97_pad_type_0 = const()[name = tensor<string, []>("input_97_pad_type_0"), val = tensor<string, []>("custom")];
            tensor<int32, [4]> input_97_pad_0 = const()[name = tensor<string, []>("input_97_pad_0"), val = tensor<int32, [4]>([1, 1, 1, 1])];
            tensor<fp16, [192, 192, 3, 3]> model_model_6_m_1_cv2_conv_weight_to_fp16 = const()[name = tensor<string, []>("model_model_6_m_1_cv2_conv_weight_to_fp16"), val = tensor<fp16, [192, 192, 3, 3]>(BLOBFILE(path = tensor<string, []>("@model_path/weights/weight.bin"), offset = tensor<uint64, []>(5882944)))];
            tensor<fp16, [192]> model_model_6_m_1_cv2_conv_bias_to_fp16 = const()[name = tensor<string, []>("model_model_6_m_1_cv2_conv_bias_to_fp16"), val = tensor<fp16, [192]>(BLOBFILE(path = tensor<string, []>("@model_path/weights/weight.bin"), offset = tensor<uint64, []>(6546560)))];
            tensor<fp16, [1, 192, 40, 40]> input_97_cast_fp16 = conv(bias = model_model_6_m_1_cv2_conv_bias_to_fp16, dilations = var_343, groups = var_21, pad = input_97_pad_0, pad_type = input_97_pad_type_0, strides = var_341, weight = model_model_6_m_1_cv2_conv_weight_to_fp16, x = input_95_cast_fp16)[name = tensor<string, []>("input_97_cast_fp16")];
            tensor<fp16, [1, 192, 40, 40]> var_346_cast_fp16 = silu(x = input_97_cast_fp16)[name = tensor<string, []>("op_346_cast_fp16")];
            tensor<fp16, [1, 192, 40, 40]> input_99_cast_fp16 = add(x = input_91_cast_fp16, y = var_346_cast_fp16)[name = tensor<string, []>("input_99_cast_fp16")];
            tensor<int32, [2]> var_353 = const()[name = tensor<string, []>("op_353"), val = tensor<int32, [2]>([1, 1])];
            tensor<int32, [2]> var_355 = const()[name = tensor<string, []>("op_355"), val = tensor<int32, [2]>([1, 1])];
            tensor<string, []> input_101_pad_type_0 = const()[name = tensor<string, []>("input_101_pad_type_0"), val = tensor<string, []>("custom")];
            tensor<int32, [4]> input_101_pad_0 = const()[name = tensor<string, []>("input_101_pad_0"), val = tensor<int32, [4]>([1, 1, 1, 1])];
            tensor<fp16, [192, 192, 3, 3]> model_model_6_m_2_cv1_conv_weight_to_fp16 = const()[name = tensor<string, []>("model_model_6_m_2_cv1_conv_weight_to_fp16"), val = tensor<fp16, [192, 192, 3, 3]>(BLOBFILE(path = tensor<string, []>("@model_path/weights/weight.bin"), offset = tensor<uint64, []>(6547008)))];
            tensor<fp16, [192]> model_model_6_m_2_cv1_conv_bias_to_fp16 = const()[name = tensor<string, []>("model_model_6_m_2_cv1_conv_bias_to_fp16"), val = tensor<fp16, [192]>(BLOBFILE(path = tensor<string, []>("@model_path/weights/weight.bin"), offset = tensor<uint64, []>(7210624)))];
            tensor<fp16, [1, 192, 40, 40]> input_101_cast_fp16 = conv(bias = model_model_6_m_2_cv1_conv_bias_to_fp16, dilations = var_355, groups = var_21, pad = input_101_pad_0, pad_type = input_101_pad_type_0, strides = var_353, weight = model_model_6_m_2_cv1_conv_weight_to_fp16, x = input_99_cast_fp16)[name = tensor<string, []>("input_101_cast_fp16")];
            tensor<fp16, [1, 192, 40, 40]> input_103_cast_fp16 = silu(x = input_101_cast_fp16)[name = tensor<string, []>("input_103_cast_fp16")];
            tensor<int32, [2]> var_362 = const()[name = tensor<string, []>("op_362"), val = tensor<int32, [2]>([1, 1])];
            tensor<int32, [2]> var_364 = const()[name = tensor<string, []>("op_364"), val = tensor<int32, [2]>([1, 1])];
            tensor<string, []> input_105_pad_type_0 = const()[name = tensor<string, []>("input_105_pad_type_0"), val = tensor<string, []>("custom")];
            tensor<int32, [4]> input_105_pad_0 = const()[name = tensor<string, []>("input_105_pad_0"), val = tensor<int32, [4]>([1, 1, 1, 1])];
            tensor<fp16, [192, 192, 3, 3]> model_model_6_m_2_cv2_conv_weight_to_fp16 = const()[name = tensor<string, []>("model_model_6_m_2_cv2_conv_weight_to_fp16"), val = tensor<fp16, [192, 192, 3, 3]>(BLOBFILE(path = tensor<string, []>("@model_path/weights/weight.bin"), offset = tensor<uint64, []>(7211072)))];
            tensor<fp16, [192]> model_model_6_m_2_cv2_conv_bias_to_fp16 = const()[name = tensor<string, []>("model_model_6_m_2_cv2_conv_bias_to_fp16"), val = tensor<fp16, [192]>(BLOBFILE(path = tensor<string, []>("@model_path/weights/weight.bin"), offset = tensor<uint64, []>(7874688)))];
            tensor<fp16, [1, 192, 40, 40]> input_105_cast_fp16 = conv(bias = model_model_6_m_2_cv2_conv_bias_to_fp16, dilations = var_364, groups = var_21, pad = input_105_pad_0, pad_type = input_105_pad_type_0, strides = var_362, weight = model_model_6_m_2_cv2_conv_weight_to_fp16, x = input_103_cast_fp16)[name = tensor<string, []>("input_105_cast_fp16")];
            tensor<fp16, [1, 192, 40, 40]> var_367_cast_fp16 = silu(x = input_105_cast_fp16)[name = tensor<string, []>("op_367_cast_fp16")];
            tensor<fp16, [1, 192, 40, 40]> input_107_cast_fp16 = add(x = input_99_cast_fp16, y = var_367_cast_fp16)[name = tensor<string, []>("input_107_cast_fp16")];
            tensor<int32, [2]> var_374 = const()[name = tensor<string, []>("op_374"), val = tensor<int32, [2]>([1, 1])];
            tensor<int32, [2]> var_376 = const()[name = tensor<string, []>("op_376"), val = tensor<int32, [2]>([1, 1])];
            tensor<string, []> input_109_pad_type_0 = const()[name = tensor<string, []>("input_109_pad_type_0"), val = tensor<string, []>("custom")];
            tensor<int32, [4]> input_109_pad_0 = const()[name = tensor<string, []>("input_109_pad_0"), val = tensor<int32, [4]>([1, 1, 1, 1])];
            tensor<fp16, [192, 192, 3, 3]> model_model_6_m_3_cv1_conv_weight_to_fp16 = const()[name = tensor<string, []>("model_model_6_m_3_cv1_conv_weight_to_fp16"), val = tensor<fp16, [192, 192, 3, 3]>(BLOBFILE(path = tensor<string, []>("@model_path/weights/weight.bin"), offset = tensor<uint64, []>(7875136)))];
            tensor<fp16, [192]> model_model_6_m_3_cv1_conv_bias_to_fp16 = const()[name = tensor<string, []>("model_model_6_m_3_cv1_conv_bias_to_fp16"), val = tensor<fp16, [192]>(BLOBFILE(path = tensor<string, []>("@model_path/weights/weight.bin"), offset = tensor<uint64, []>(8538752)))];
            tensor<fp16, [1, 192, 40, 40]> input_109_cast_fp16 = conv(bias = model_model_6_m_3_cv1_conv_bias_to_fp16, dilations = var_376, groups = var_21, pad = input_109_pad_0, pad_type = input_109_pad_type_0, strides = var_374, weight = model_model_6_m_3_cv1_conv_weight_to_fp16, x = input_107_cast_fp16)[name = tensor<string, []>("input_109_cast_fp16")];
            tensor<fp16, [1, 192, 40, 40]> input_111_cast_fp16 = silu(x = input_109_cast_fp16)[name = tensor<string, []>("input_111_cast_fp16")];
            tensor<int32, [2]> var_383 = const()[name = tensor<string, []>("op_383"), val = tensor<int32, [2]>([1, 1])];
            tensor<int32, [2]> var_385 = const()[name = tensor<string, []>("op_385"), val = tensor<int32, [2]>([1, 1])];
            tensor<string, []> input_113_pad_type_0 = const()[name = tensor<string, []>("input_113_pad_type_0"), val = tensor<string, []>("custom")];
            tensor<int32, [4]> input_113_pad_0 = const()[name = tensor<string, []>("input_113_pad_0"), val = tensor<int32, [4]>([1, 1, 1, 1])];
            tensor<fp16, [192, 192, 3, 3]> model_model_6_m_3_cv2_conv_weight_to_fp16 = const()[name = tensor<string, []>("model_model_6_m_3_cv2_conv_weight_to_fp16"), val = tensor<fp16, [192, 192, 3, 3]>(BLOBFILE(path = tensor<string, []>("@model_path/weights/weight.bin"), offset = tensor<uint64, []>(8539200)))];
            tensor<fp16, [192]> model_model_6_m_3_cv2_conv_bias_to_fp16 = const()[name = tensor<string, []>("model_model_6_m_3_cv2_conv_bias_to_fp16"), val = tensor<fp16, [192]>(BLOBFILE(path = tensor<string, []>("@model_path/weights/weight.bin"), offset = tensor<uint64, []>(9202816)))];
            tensor<fp16, [1, 192, 40, 40]> input_113_cast_fp16 = conv(bias = model_model_6_m_3_cv2_conv_bias_to_fp16, dilations = var_385, groups = var_21, pad = input_113_pad_0, pad_type = input_113_pad_type_0, strides = var_383, weight = model_model_6_m_3_cv2_conv_weight_to_fp16, x = input_111_cast_fp16)[name = tensor<string, []>("input_113_cast_fp16")];
            tensor<fp16, [1, 192, 40, 40]> var_388_cast_fp16 = silu(x = input_113_cast_fp16)[name = tensor<string, []>("op_388_cast_fp16")];
            tensor<fp16, [1, 192, 40, 40]> var_389_cast_fp16 = add(x = input_107_cast_fp16, y = var_388_cast_fp16)[name = tensor<string, []>("op_389_cast_fp16")];
            tensor<bool, []> input_115_interleave_0 = const()[name = tensor<string, []>("input_115_interleave_0"), val = tensor<bool, []>(false)];
            tensor<fp16, [1, 1152, 40, 40]> input_115_cast_fp16 = concat(axis = var_21, interleave = input_115_interleave_0, values = (var_303_cast_fp16_0, var_303_cast_fp16_1, input_91_cast_fp16, input_99_cast_fp16, input_107_cast_fp16, var_389_cast_fp16))[name = tensor<string, []>("input_115_cast_fp16")];
            tensor<int32, [2]> var_395 = const()[name = tensor<string, []>("op_395"), val = tensor<int32, [2]>([1, 1])];
            tensor<int32, [2]> var_397 = const()[name = tensor<string, []>("op_397"), val = tensor<int32, [2]>([1, 1])];
            tensor<string, []> input_117_pad_type_0 = const()[name = tensor<string, []>("input_117_pad_type_0"), val = tensor<string, []>("custom")];
            tensor<int32, [4]> input_117_pad_0 = const()[name = tensor<string, []>("input_117_pad_0"), val = tensor<int32, [4]>([0, 0, 0, 0])];
            tensor<fp16, [384, 1152, 1, 1]> model_model_6_cv2_conv_weight_to_fp16 = const()[name = tensor<string, []>("model_model_6_cv2_conv_weight_to_fp16"), val = tensor<fp16, [384, 1152, 1, 1]>(BLOBFILE(path = tensor<string, []>("@model_path/weights/weight.bin"), offset = tensor<uint64, []>(9203264)))];
            tensor<fp16, [384]> model_model_6_cv2_conv_bias_to_fp16 = const()[name = tensor<string, []>("model_model_6_cv2_conv_bias_to_fp16"), val = tensor<fp16, [384]>(BLOBFILE(path = tensor<string, []>("@model_path/weights/weight.bin"), offset = tensor<uint64, []>(10088064)))];
            tensor<fp16, [1, 384, 40, 40]> input_117_cast_fp16 = conv(bias = model_model_6_cv2_conv_bias_to_fp16, dilations = var_397, groups = var_21, pad = input_117_pad_0, pad_type = input_117_pad_type_0, strides = var_395, weight = model_model_6_cv2_conv_weight_to_fp16, x = input_115_cast_fp16)[name = tensor<string, []>("input_117_cast_fp16")];
            tensor<fp16, [1, 384, 40, 40]> input_119_cast_fp16 = silu(x = input_117_cast_fp16)[name = tensor<string, []>("input_119_cast_fp16")];
            tensor<int32, [2]> var_404 = const()[name = tensor<string, []>("op_404"), val = tensor<int32, [2]>([2, 2])];
            tensor<int32, [2]> var_406 = const()[name = tensor<string, []>("op_406"), val = tensor<int32, [2]>([1, 1])];
            tensor<string, []> input_121_pad_type_0 = const()[name = tensor<string, []>("input_121_pad_type_0"), val = tensor<string, []>("custom")];
            tensor<int32, [4]> input_121_pad_0 = const()[name = tensor<string, []>("input_121_pad_0"), val = tensor<int32, [4]>([1, 1, 1, 1])];
            tensor<fp16, [576, 384, 3, 3]> model_model_7_conv_weight_to_fp16 = const()[name = tensor<string, []>("model_model_7_conv_weight_to_fp16"), val = tensor<fp16, [576, 384, 3, 3]>(BLOBFILE(path = tensor<string, []>("@model_path/weights/weight.bin"), offset = tensor<uint64, []>(10088896)))];
            tensor<fp16, [576]> model_model_7_conv_bias_to_fp16 = const()[name = tensor<string, []>("model_model_7_conv_bias_to_fp16"), val = tensor<fp16, [576]>(BLOBFILE(path = tensor<string, []>("@model_path/weights/weight.bin"), offset = tensor<uint64, []>(14070272)))];
            tensor<fp16, [1, 576, 20, 20]> input_121_cast_fp16 = conv(bias = model_model_7_conv_bias_to_fp16, dilations = var_406, groups = var_21, pad = input_121_pad_0, pad_type = input_121_pad_type_0, strides = var_404, weight = model_model_7_conv_weight_to_fp16, x = input_119_cast_fp16)[name = tensor<string, []>("input_121_cast_fp16")];
            tensor<fp16, [1, 576, 20, 20]> input_123_cast_fp16 = silu(x = input_121_cast_fp16)[name = tensor<string, []>("input_123_cast_fp16")];
            tensor<int32, [2]> var_419 = const()[name = tensor<string, []>("op_419"), val = tensor<int32, [2]>([1, 1])];
            tensor<int32, [2]> var_421 = const()[name = tensor<string, []>("op_421"), val = tensor<int32, [2]>([1, 1])];
            tensor<string, []> input_125_pad_type_0 = const()[name = tensor<string, []>("input_125_pad_type_0"), val = tensor<string, []>("custom")];
            tensor<int32, [4]> input_125_pad_0 = const()[name = tensor<string, []>("input_125_pad_0"), val = tensor<int32, [4]>([0, 0, 0, 0])];
            tensor<fp16, [576, 576, 1, 1]> model_model_8_cv1_conv_weight_to_fp16 = const()[name = tensor<string, []>("model_model_8_cv1_conv_weight_to_fp16"), val = tensor<fp16, [576, 576, 1, 1]>(BLOBFILE(path = tensor<string, []>("@model_path/weights/weight.bin"), offset = tensor<uint64, []>(14071488)))];
            tensor<fp16, [576]> model_model_8_cv1_conv_bias_to_fp16 = const()[name = tensor<string, []>("model_model_8_cv1_conv_bias_to_fp16"), val = tensor<fp16, [576]>(BLOBFILE(path = tensor<string, []>("@model_path/weights/weight.bin"), offset = tensor<uint64, []>(14735104)))];
            tensor<fp16, [1, 576, 20, 20]> input_125_cast_fp16 = conv(bias = model_model_8_cv1_conv_bias_to_fp16, dilations = var_421, groups = var_21, pad = input_125_pad_0, pad_type = input_125_pad_type_0, strides = var_419, weight = model_model_8_cv1_conv_weight_to_fp16, x = input_123_cast_fp16)[name = tensor<string, []>("input_125_cast_fp16")];
            tensor<fp16, [1, 576, 20, 20]> var_424_cast_fp16 = silu(x = input_125_cast_fp16)[name = tensor<string, []>("op_424_cast_fp16")];
            tensor<int32, [2]> var_425 = const()[name = tensor<string, []>("op_425"), val = tensor<int32, [2]>([288, 288])];
            tensor<int32, []> var_426_axis_0 = const()[name = tensor<string, []>("op_426_axis_0"), val = tensor<int32, []>(1)];
            tensor<fp16, [1, 288, 20, 20]> var_426_cast_fp16_0, tensor<fp16, [1, 288, 20, 20]> var_426_cast_fp16_1 = split(axis = var_426_axis_0, split_sizes = var_425, x = var_424_cast_fp16)[name = tensor<string, []>("op_426_cast_fp16")];
            tensor<int32, [2]> var_434 = const()[name = tensor<string, []>("op_434"), val = tensor<int32, [2]>([1, 1])];
            tensor<int32, [2]> var_436 = const()[name = tensor<string, []>("op_436"), val = tensor<int32, [2]>([1, 1])];
            tensor<string, []> input_129_pad_type_0 = const()[name = tensor<string, []>("input_129_pad_type_0"), val = tensor<string, []>("custom")];
            tensor<int32, [4]> input_129_pad_0 = const()[name = tensor<string, []>("input_129_pad_0"), val = tensor<int32, [4]>([1, 1, 1, 1])];
            tensor<fp16, [288, 288, 3, 3]> model_model_8_m_0_cv1_conv_weight_to_fp16 = const()[name = tensor<string, []>("model_model_8_m_0_cv1_conv_weight_to_fp16"), val = tensor<fp16, [288, 288, 3, 3]>(BLOBFILE(path = tensor<string, []>("@model_path/weights/weight.bin"), offset = tensor<uint64, []>(14736320)))];
            tensor<fp16, [288]> model_model_8_m_0_cv1_conv_bias_to_fp16 = const()[name = tensor<string, []>("model_model_8_m_0_cv1_conv_bias_to_fp16"), val = tensor<fp16, [288]>(BLOBFILE(path = tensor<string, []>("@model_path/weights/weight.bin"), offset = tensor<uint64, []>(16229376)))];
            tensor<fp16, [1, 288, 20, 20]> input_129_cast_fp16 = conv(bias = model_model_8_m_0_cv1_conv_bias_to_fp16, dilations = var_436, groups = var_21, pad = input_129_pad_0, pad_type = input_129_pad_type_0, strides = var_434, weight = model_model_8_m_0_cv1_conv_weight_to_fp16, x = var_426_cast_fp16_1)[name = tensor<string, []>("input_129_cast_fp16")];
            tensor<fp16, [1, 288, 20, 20]> input_131_cast_fp16 = silu(x = input_129_cast_fp16)[name = tensor<string, []>("input_131_cast_fp16")];
            tensor<int32, [2]> var_443 = const()[name = tensor<string, []>("op_443"), val = tensor<int32, [2]>([1, 1])];
            tensor<int32, [2]> var_445 = const()[name = tensor<string, []>("op_445"), val = tensor<int32, [2]>([1, 1])];
            tensor<string, []> input_133_pad_type_0 = const()[name = tensor<string, []>("input_133_pad_type_0"), val = tensor<string, []>("custom")];
            tensor<int32, [4]> input_133_pad_0 = const()[name = tensor<string, []>("input_133_pad_0"), val = tensor<int32, [4]>([1, 1, 1, 1])];
            tensor<fp16, [288, 288, 3, 3]> model_model_8_m_0_cv2_conv_weight_to_fp16 = const()[name = tensor<string, []>("model_model_8_m_0_cv2_conv_weight_to_fp16"), val = tensor<fp16, [288, 288, 3, 3]>(BLOBFILE(path = tensor<string, []>("@model_path/weights/weight.bin"), offset = tensor<uint64, []>(16230016)))];
            tensor<fp16, [288]> model_model_8_m_0_cv2_conv_bias_to_fp16 = const()[name = tensor<string, []>("model_model_8_m_0_cv2_conv_bias_to_fp16"), val = tensor<fp16, [288]>(BLOBFILE(path = tensor<string, []>("@model_path/weights/weight.bin"), offset = tensor<uint64, []>(17723072)))];
            tensor<fp16, [1, 288, 20, 20]> input_133_cast_fp16 = conv(bias = model_model_8_m_0_cv2_conv_bias_to_fp16, dilations = var_445, groups = var_21, pad = input_133_pad_0, pad_type = input_133_pad_type_0, strides = var_443, weight = model_model_8_m_0_cv2_conv_weight_to_fp16, x = input_131_cast_fp16)[name = tensor<string, []>("input_133_cast_fp16")];
            tensor<fp16, [1, 288, 20, 20]> var_448_cast_fp16 = silu(x = input_133_cast_fp16)[name = tensor<string, []>("op_448_cast_fp16")];
            tensor<fp16, [1, 288, 20, 20]> input_135_cast_fp16 = add(x = var_426_cast_fp16_1, y = var_448_cast_fp16)[name = tensor<string, []>("input_135_cast_fp16")];
            tensor<int32, [2]> var_455 = const()[name = tensor<string, []>("op_455"), val = tensor<int32, [2]>([1, 1])];
            tensor<int32, [2]> var_457 = const()[name = tensor<string, []>("op_457"), val = tensor<int32, [2]>([1, 1])];
            tensor<string, []> input_137_pad_type_0 = const()[name = tensor<string, []>("input_137_pad_type_0"), val = tensor<string, []>("custom")];
            tensor<int32, [4]> input_137_pad_0 = const()[name = tensor<string, []>("input_137_pad_0"), val = tensor<int32, [4]>([1, 1, 1, 1])];
            tensor<fp16, [288, 288, 3, 3]> model_model_8_m_1_cv1_conv_weight_to_fp16 = const()[name = tensor<string, []>("model_model_8_m_1_cv1_conv_weight_to_fp16"), val = tensor<fp16, [288, 288, 3, 3]>(BLOBFILE(path = tensor<string, []>("@model_path/weights/weight.bin"), offset = tensor<uint64, []>(17723712)))];
            tensor<fp16, [288]> model_model_8_m_1_cv1_conv_bias_to_fp16 = const()[name = tensor<string, []>("model_model_8_m_1_cv1_conv_bias_to_fp16"), val = tensor<fp16, [288]>(BLOBFILE(path = tensor<string, []>("@model_path/weights/weight.bin"), offset = tensor<uint64, []>(19216768)))];
            tensor<fp16, [1, 288, 20, 20]> input_137_cast_fp16 = conv(bias = model_model_8_m_1_cv1_conv_bias_to_fp16, dilations = var_457, groups = var_21, pad = input_137_pad_0, pad_type = input_137_pad_type_0, strides = var_455, weight = model_model_8_m_1_cv1_conv_weight_to_fp16, x = input_135_cast_fp16)[name = tensor<string, []>("input_137_cast_fp16")];
            tensor<fp16, [1, 288, 20, 20]> input_139_cast_fp16 = silu(x = input_137_cast_fp16)[name = tensor<string, []>("input_139_cast_fp16")];
            tensor<int32, [2]> var_464 = const()[name = tensor<string, []>("op_464"), val = tensor<int32, [2]>([1, 1])];
            tensor<int32, [2]> var_466 = const()[name = tensor<string, []>("op_466"), val = tensor<int32, [2]>([1, 1])];
            tensor<string, []> input_141_pad_type_0 = const()[name = tensor<string, []>("input_141_pad_type_0"), val = tensor<string, []>("custom")];
            tensor<int32, [4]> input_141_pad_0 = const()[name = tensor<string, []>("input_141_pad_0"), val = tensor<int32, [4]>([1, 1, 1, 1])];
            tensor<fp16, [288, 288, 3, 3]> model_model_8_m_1_cv2_conv_weight_to_fp16 = const()[name = tensor<string, []>("model_model_8_m_1_cv2_conv_weight_to_fp16"), val = tensor<fp16, [288, 288, 3, 3]>(BLOBFILE(path = tensor<string, []>("@model_path/weights/weight.bin"), offset = tensor<uint64, []>(19217408)))];
            tensor<fp16, [288]> model_model_8_m_1_cv2_conv_bias_to_fp16 = const()[name = tensor<string, []>("model_model_8_m_1_cv2_conv_bias_to_fp16"), val = tensor<fp16, [288]>(BLOBFILE(path = tensor<string, []>("@model_path/weights/weight.bin"), offset = tensor<uint64, []>(20710464)))];
            tensor<fp16, [1, 288, 20, 20]> input_141_cast_fp16 = conv(bias = model_model_8_m_1_cv2_conv_bias_to_fp16, dilations = var_466, groups = var_21, pad = input_141_pad_0, pad_type = input_141_pad_type_0, strides = var_464, weight = model_model_8_m_1_cv2_conv_weight_to_fp16, x = input_139_cast_fp16)[name = tensor<string, []>("input_141_cast_fp16")];
            tensor<fp16, [1, 288, 20, 20]> var_469_cast_fp16 = silu(x = input_141_cast_fp16)[name = tensor<string, []>("op_469_cast_fp16")];
            tensor<fp16, [1, 288, 20, 20]> var_470_cast_fp16 = add(x = input_135_cast_fp16, y = var_469_cast_fp16)[name = tensor<string, []>("op_470_cast_fp16")];
            tensor<bool, []> input_143_interleave_0 = const()[name = tensor<string, []>("input_143_interleave_0"), val = tensor<bool, []>(false)];
            tensor<fp16, [1, 1152, 20, 20]> input_143_cast_fp16 = concat(axis = var_21, interleave = input_143_interleave_0, values = (var_426_cast_fp16_0, var_426_cast_fp16_1, input_135_cast_fp16, var_470_cast_fp16))[name = tensor<string, []>("input_143_cast_fp16")];
            tensor<int32, [2]> var_476 = const()[name = tensor<string, []>("op_476"), val = tensor<int32, [2]>([1, 1])];
            tensor<int32, [2]> var_478 = const()[name = tensor<string, []>("op_478"), val = tensor<int32, [2]>([1, 1])];
            tensor<string, []> input_145_pad_type_0 = const()[name = tensor<string, []>("input_145_pad_type_0"), val = tensor<string, []>("custom")];
            tensor<int32, [4]> input_145_pad_0 = const()[name = tensor<string, []>("input_145_pad_0"), val = tensor<int32, [4]>([0, 0, 0, 0])];
            tensor<fp16, [576, 1152, 1, 1]> model_model_8_cv2_conv_weight_to_fp16 = const()[name = tensor<string, []>("model_model_8_cv2_conv_weight_to_fp16"), val = tensor<fp16, [576, 1152, 1, 1]>(BLOBFILE(path = tensor<string, []>("@model_path/weights/weight.bin"), offset = tensor<uint64, []>(20711104)))];
            tensor<fp16, [576]> model_model_8_cv2_conv_bias_to_fp16 = const()[name = tensor<string, []>("model_model_8_cv2_conv_bias_to_fp16"), val = tensor<fp16, [576]>(BLOBFILE(path = tensor<string, []>("@model_path/weights/weight.bin"), offset = tensor<uint64, []>(22038272)))];
            tensor<fp16, [1, 576, 20, 20]> input_145_cast_fp16 = conv(bias = model_model_8_cv2_conv_bias_to_fp16, dilations = var_478, groups = var_21, pad = input_145_pad_0, pad_type = input_145_pad_type_0, strides = var_476, weight = model_model_8_cv2_conv_weight_to_fp16, x = input_143_cast_fp16)[name = tensor<string, []>("input_145_cast_fp16")];
            tensor<fp16, [1, 576, 20, 20]> input_147_cast_fp16 = silu(x = input_145_cast_fp16)[name = tensor<string, []>("input_147_cast_fp16")];
            tensor<int32, [2]> var_487 = const()[name = tensor<string, []>("op_487"), val = tensor<int32, [2]>([1, 1])];
            tensor<int32, [2]> var_489 = const()[name = tensor<string, []>("op_489"), val = tensor<int32, [2]>([1, 1])];
            tensor<string, []> input_149_pad_type_0 = const()[name = tensor<string, []>("input_149_pad_type_0"), val = tensor<string, []>("custom")];
            tensor<int32, [4]> input_149_pad_0 = const()[name = tensor<string, []>("input_149_pad_0"), val = tensor<int32, [4]>([0, 0, 0, 0])];
            tensor<fp16, [288, 576, 1, 1]> model_model_9_cv1_conv_weight_to_fp16 = const()[name = tensor<string, []>("model_model_9_cv1_conv_weight_to_fp16"), val = tensor<fp16, [288, 576, 1, 1]>(BLOBFILE(path = tensor<string, []>("@model_path/weights/weight.bin"), offset = tensor<uint64, []>(22039488)))];
            tensor<fp16, [288]> model_model_9_cv1_conv_bias_to_fp16 = const()[name = tensor<string, []>("model_model_9_cv1_conv_bias_to_fp16"), val = tensor<fp16, [288]>(BLOBFILE(path = tensor<string, []>("@model_path/weights/weight.bin"), offset = tensor<uint64, []>(22371328)))];
            tensor<fp16, [1, 288, 20, 20]> input_149_cast_fp16 = conv(bias = model_model_9_cv1_conv_bias_to_fp16, dilations = var_489, groups = var_21, pad = input_149_pad_0, pad_type = input_149_pad_type_0, strides = var_487, weight = model_model_9_cv1_conv_weight_to_fp16, x = input_147_cast_fp16)[name = tensor<string, []>("input_149_cast_fp16")];
            tensor<fp16, [1, 288, 20, 20]> input_151_cast_fp16 = silu(x = input_149_cast_fp16)[name = tensor<string, []>("input_151_cast_fp16")];
            tensor<int32, [2]> var_493 = const()[name = tensor<string, []>("op_493"), val = tensor<int32, [2]>([5, 5])];
            tensor<int32, [2]> var_494 = const()[name = tensor<string, []>("op_494"), val = tensor<int32, [2]>([1, 1])];
            tensor<string, []> input_153_pad_type_0 = const()[name = tensor<string, []>("input_153_pad_type_0"), val = tensor<string, []>("custom")];
            tensor<int32, [4]> input_153_pad_0 = const()[name = tensor<string, []>("input_153_pad_0"), val = tensor<int32, [4]>([2, 2, 2, 2])];
            tensor<bool, []> input_153_ceil_mode_0 = const()[name = tensor<string, []>("input_153_ceil_mode_0"), val = tensor<bool, []>(false)];
            tensor<fp16, [1, 288, 20, 20]> input_153_cast_fp16 = max_pool(ceil_mode = input_153_ceil_mode_0, kernel_sizes = var_493, pad = input_153_pad_0, pad_type = input_153_pad_type_0, strides = var_494, x = input_151_cast_fp16)[name = tensor<string, []>("input_153_cast_fp16")];
            tensor<int32, [2]> var_498 = const()[name = tensor<string, []>("op_498"), val = tensor<int32, [2]>([5, 5])];
            tensor<int32, [2]> var_499 = const()[name = tensor<string, []>("op_499"), val = tensor<int32, [2]>([1, 1])];
            tensor<string, []> input_155_pad_type_0 = const()[name = tensor<string, []>("input_155_pad_type_0"), val = tensor<string, []>("custom")];
            tensor<int32, [4]> input_155_pad_0 = const()[name = tensor<string, []>("input_155_pad_0"), val = tensor<int32, [4]>([2, 2, 2, 2])];
            tensor<bool, []> input_155_ceil_mode_0 = const()[name = tensor<string, []>("input_155_ceil_mode_0"), val = tensor<bool, []>(false)];
            tensor<fp16, [1, 288, 20, 20]> input_155_cast_fp16 = max_pool(ceil_mode = input_155_ceil_mode_0, kernel_sizes = var_498, pad = input_155_pad_0, pad_type = input_155_pad_type_0, strides = var_499, x = input_153_cast_fp16)[name = tensor<string, []>("input_155_cast_fp16")];
            tensor<int32, [2]> var_503 = const()[name = tensor<string, []>("op_503"), val = tensor<int32, [2]>([5, 5])];
            tensor<int32, [2]> var_504 = const()[name = tensor<string, []>("op_504"), val = tensor<int32, [2]>([1, 1])];
            tensor<string, []> var_507_pad_type_0 = const()[name = tensor<string, []>("op_507_pad_type_0"), val = tensor<string, []>("custom")];
            tensor<int32, [4]> var_507_pad_0 = const()[name = tensor<string, []>("op_507_pad_0"), val = tensor<int32, [4]>([2, 2, 2, 2])];
            tensor<bool, []> var_507_ceil_mode_0 = const()[name = tensor<string, []>("op_507_ceil_mode_0"), val = tensor<bool, []>(false)];
            tensor<fp16, [1, 288, 20, 20]> var_507_cast_fp16 = max_pool(ceil_mode = var_507_ceil_mode_0, kernel_sizes = var_503, pad = var_507_pad_0, pad_type = var_507_pad_type_0, strides = var_504, x = input_155_cast_fp16)[name = tensor<string, []>("op_507_cast_fp16")];
            tensor<bool, []> input_157_interleave_0 = const()[name = tensor<string, []>("input_157_interleave_0"), val = tensor<bool, []>(false)];
            tensor<fp16, [1, 1152, 20, 20]> input_157_cast_fp16 = concat(axis = var_21, interleave = input_157_interleave_0, values = (input_151_cast_fp16, input_153_cast_fp16, input_155_cast_fp16, var_507_cast_fp16))[name = tensor<string, []>("input_157_cast_fp16")];
            tensor<int32, [2]> var_513 = const()[name = tensor<string, []>("op_513"), val = tensor<int32, [2]>([1, 1])];
            tensor<int32, [2]> var_515 = const()[name = tensor<string, []>("op_515"), val = tensor<int32, [2]>([1, 1])];
            tensor<string, []> input_159_pad_type_0 = const()[name = tensor<string, []>("input_159_pad_type_0"), val = tensor<string, []>("custom")];
            tensor<int32, [4]> input_159_pad_0 = const()[name = tensor<string, []>("input_159_pad_0"), val = tensor<int32, [4]>([0, 0, 0, 0])];
            tensor<fp16, [576, 1152, 1, 1]> model_model_9_cv2_conv_weight_to_fp16 = const()[name = tensor<string, []>("model_model_9_cv2_conv_weight_to_fp16"), val = tensor<fp16, [576, 1152, 1, 1]>(BLOBFILE(path = tensor<string, []>("@model_path/weights/weight.bin"), offset = tensor<uint64, []>(22371968)))];
            tensor<fp16, [576]> model_model_9_cv2_conv_bias_to_fp16 = const()[name = tensor<string, []>("model_model_9_cv2_conv_bias_to_fp16"), val = tensor<fp16, [576]>(BLOBFILE(path = tensor<string, []>("@model_path/weights/weight.bin"), offset = tensor<uint64, []>(23699136)))];
            tensor<fp16, [1, 576, 20, 20]> input_159_cast_fp16 = conv(bias = model_model_9_cv2_conv_bias_to_fp16, dilations = var_515, groups = var_21, pad = input_159_pad_0, pad_type = input_159_pad_type_0, strides = var_513, weight = model_model_9_cv2_conv_weight_to_fp16, x = input_157_cast_fp16)[name = tensor<string, []>("input_159_cast_fp16")];
            tensor<fp16, [1, 576, 20, 20]> input_161_cast_fp16 = silu(x = input_159_cast_fp16)[name = tensor<string, []>("input_161_cast_fp16")];
            tensor<fp32, []> var_520_scale_factor_height_0 = const()[name = tensor<string, []>("op_520_scale_factor_height_0"), val = tensor<fp32, []>(0x1p+1)];
            tensor<fp32, []> var_520_scale_factor_width_0 = const()[name = tensor<string, []>("op_520_scale_factor_width_0"), val = tensor<fp32, []>(0x1p+1)];
            tensor<fp16, [1, 576, 40, 40]> var_520_cast_fp16 = upsample_nearest_neighbor(scale_factor_height = var_520_scale_factor_height_0, scale_factor_width = var_520_scale_factor_width_0, x = input_161_cast_fp16)[name = tensor<string, []>("op_520_cast_fp16")];
            tensor<bool, []> input_163_interleave_0 = const()[name = tensor<string, []>("input_163_interleave_0"), val = tensor<bool, []>(false)];
            tensor<fp16, [1, 960, 40, 40]> input_163_cast_fp16 = concat(axis = var_21, interleave = input_163_interleave_0, values = (var_520_cast_fp16, input_119_cast_fp16))[name = tensor<string, []>("input_163_cast_fp16")];
            tensor<int32, [2]> var_532 = const()[name = tensor<string, []>("op_532"), val = tensor<int32, [2]>([1, 1])];
            tensor<int32, [2]> var_534 = const()[name = tensor<string, []>("op_534"), val = tensor<int32, [2]>([1, 1])];
            tensor<string, []> input_165_pad_type_0 = const()[name = tensor<string, []>("input_165_pad_type_0"), val = tensor<string, []>("custom")];
            tensor<int32, [4]> input_165_pad_0 = const()[name = tensor<string, []>("input_165_pad_0"), val = tensor<int32, [4]>([0, 0, 0, 0])];
            tensor<fp16, [384, 960, 1, 1]> model_model_12_cv1_conv_weight_to_fp16 = const()[name = tensor<string, []>("model_model_12_cv1_conv_weight_to_fp16"), val = tensor<fp16, [384, 960, 1, 1]>(BLOBFILE(path = tensor<string, []>("@model_path/weights/weight.bin"), offset = tensor<uint64, []>(23700352)))];
            tensor<fp16, [384]> model_model_12_cv1_conv_bias_to_fp16 = const()[name = tensor<string, []>("model_model_12_cv1_conv_bias_to_fp16"), val = tensor<fp16, [384]>(BLOBFILE(path = tensor<string, []>("@model_path/weights/weight.bin"), offset = tensor<uint64, []>(24437696)))];
            tensor<fp16, [1, 384, 40, 40]> input_165_cast_fp16 = conv(bias = model_model_12_cv1_conv_bias_to_fp16, dilations = var_534, groups = var_21, pad = input_165_pad_0, pad_type = input_165_pad_type_0, strides = var_532, weight = model_model_12_cv1_conv_weight_to_fp16, x = input_163_cast_fp16)[name = tensor<string, []>("input_165_cast_fp16")];
            tensor<fp16, [1, 384, 40, 40]> var_537_cast_fp16 = silu(x = input_165_cast_fp16)[name = tensor<string, []>("op_537_cast_fp16")];
            tensor<int32, [2]> var_538 = const()[name = tensor<string, []>("op_538"), val = tensor<int32, [2]>([192, 192])];
            tensor<int32, []> var_539_axis_0 = const()[name = tensor<string, []>("op_539_axis_0"), val = tensor<int32, []>(1)];
            tensor<fp16, [1, 192, 40, 40]> var_539_cast_fp16_0, tensor<fp16, [1, 192, 40, 40]> var_539_cast_fp16_1 = split(axis = var_539_axis_0, split_sizes = var_538, x = var_537_cast_fp16)[name = tensor<string, []>("op_539_cast_fp16")];
            tensor<int32, [2]> var_547 = const()[name = tensor<string, []>("op_547"), val = tensor<int32, [2]>([1, 1])];
            tensor<int32, [2]> var_549 = const()[name = tensor<string, []>("op_549"), val = tensor<int32, [2]>([1, 1])];
            tensor<string, []> input_169_pad_type_0 = const()[name = tensor<string, []>("input_169_pad_type_0"), val = tensor<string, []>("custom")];
            tensor<int32, [4]> input_169_pad_0 = const()[name = tensor<string, []>("input_169_pad_0"), val = tensor<int32, [4]>([1, 1, 1, 1])];
            tensor<fp16, [192, 192, 3, 3]> model_model_12_m_0_cv1_conv_weight_to_fp16 = const()[name = tensor<string, []>("model_model_12_m_0_cv1_conv_weight_to_fp16"), val = tensor<fp16, [192, 192, 3, 3]>(BLOBFILE(path = tensor<string, []>("@model_path/weights/weight.bin"), offset = tensor<uint64, []>(24438528)))];
            tensor<fp16, [192]> model_model_12_m_0_cv1_conv_bias_to_fp16 = const()[name = tensor<string, []>("model_model_12_m_0_cv1_conv_bias_to_fp16"), val = tensor<fp16, [192]>(BLOBFILE(path = tensor<string, []>("@model_path/weights/weight.bin"), offset = tensor<uint64, []>(25102144)))];
            tensor<fp16, [1, 192, 40, 40]> input_169_cast_fp16 = conv(bias = model_model_12_m_0_cv1_conv_bias_to_fp16, dilations = var_549, groups = var_21, pad = input_169_pad_0, pad_type = input_169_pad_type_0, strides = var_547, weight = model_model_12_m_0_cv1_conv_weight_to_fp16, x = var_539_cast_fp16_1)[name = tensor<string, []>("input_169_cast_fp16")];
            tensor<fp16, [1, 192, 40, 40]> input_171_cast_fp16 = silu(x = input_169_cast_fp16)[name = tensor<string, []>("input_171_cast_fp16")];
            tensor<int32, [2]> var_556 = const()[name = tensor<string, []>("op_556"), val = tensor<int32, [2]>([1, 1])];
            tensor<int32, [2]> var_558 = const()[name = tensor<string, []>("op_558"), val = tensor<int32, [2]>([1, 1])];
            tensor<string, []> input_173_pad_type_0 = const()[name = tensor<string, []>("input_173_pad_type_0"), val = tensor<string, []>("custom")];
            tensor<int32, [4]> input_173_pad_0 = const()[name = tensor<string, []>("input_173_pad_0"), val = tensor<int32, [4]>([1, 1, 1, 1])];
            tensor<fp16, [192, 192, 3, 3]> model_model_12_m_0_cv2_conv_weight_to_fp16 = const()[name = tensor<string, []>("model_model_12_m_0_cv2_conv_weight_to_fp16"), val = tensor<fp16, [192, 192, 3, 3]>(BLOBFILE(path = tensor<string, []>("@model_path/weights/weight.bin"), offset = tensor<uint64, []>(25102592)))];
            tensor<fp16, [192]> model_model_12_m_0_cv2_conv_bias_to_fp16 = const()[name = tensor<string, []>("model_model_12_m_0_cv2_conv_bias_to_fp16"), val = tensor<fp16, [192]>(BLOBFILE(path = tensor<string, []>("@model_path/weights/weight.bin"), offset = tensor<uint64, []>(25766208)))];
            tensor<fp16, [1, 192, 40, 40]> input_173_cast_fp16 = conv(bias = model_model_12_m_0_cv2_conv_bias_to_fp16, dilations = var_558, groups = var_21, pad = input_173_pad_0, pad_type = input_173_pad_type_0, strides = var_556, weight = model_model_12_m_0_cv2_conv_weight_to_fp16, x = input_171_cast_fp16)[name = tensor<string, []>("input_173_cast_fp16")];
            tensor<fp16, [1, 192, 40, 40]> input_175_cast_fp16 = silu(x = input_173_cast_fp16)[name = tensor<string, []>("input_175_cast_fp16")];
            tensor<int32, [2]> var_567 = const()[name = tensor<string, []>("op_567"), val = tensor<int32, [2]>([1, 1])];
            tensor<int32, [2]> var_569 = const()[name = tensor<string, []>("op_569"), val = tensor<int32, [2]>([1, 1])];
            tensor<string, []> input_177_pad_type_0 = const()[name = tensor<string, []>("input_177_pad_type_0"), val = tensor<string, []>("custom")];
            tensor<int32, [4]> input_177_pad_0 = const()[name = tensor<string, []>("input_177_pad_0"), val = tensor<int32, [4]>([1, 1, 1, 1])];
            tensor<fp16, [192, 192, 3, 3]> model_model_12_m_1_cv1_conv_weight_to_fp16 = const()[name = tensor<string, []>("model_model_12_m_1_cv1_conv_weight_to_fp16"), val = tensor<fp16, [192, 192, 3, 3]>(BLOBFILE(path = tensor<string, []>("@model_path/weights/weight.bin"), offset = tensor<uint64, []>(25766656)))];
            tensor<fp16, [192]> model_model_12_m_1_cv1_conv_bias_to_fp16 = const()[name = tensor<string, []>("model_model_12_m_1_cv1_conv_bias_to_fp16"), val = tensor<fp16, [192]>(BLOBFILE(path = tensor<string, []>("@model_path/weights/weight.bin"), offset = tensor<uint64, []>(26430272)))];
            tensor<fp16, [1, 192, 40, 40]> input_177_cast_fp16 = conv(bias = model_model_12_m_1_cv1_conv_bias_to_fp16, dilations = var_569, groups = var_21, pad = input_177_pad_0, pad_type = input_177_pad_type_0, strides = var_567, weight = model_model_12_m_1_cv1_conv_weight_to_fp16, x = input_175_cast_fp16)[name = tensor<string, []>("input_177_cast_fp16")];
            tensor<fp16, [1, 192, 40, 40]> input_179_cast_fp16 = silu(x = input_177_cast_fp16)[name = tensor<string, []>("input_179_cast_fp16")];
            tensor<int32, [2]> var_576 = const()[name = tensor<string, []>("op_576"), val = tensor<int32, [2]>([1, 1])];
            tensor<int32, [2]> var_578 = const()[name = tensor<string, []>("op_578"), val = tensor<int32, [2]>([1, 1])];
            tensor<string, []> input_181_pad_type_0 = const()[name = tensor<string, []>("input_181_pad_type_0"), val = tensor<string, []>("custom")];
            tensor<int32, [4]> input_181_pad_0 = const()[name = tensor<string, []>("input_181_pad_0"), val = tensor<int32, [4]>([1, 1, 1, 1])];
            tensor<fp16, [192, 192, 3, 3]> model_model_12_m_1_cv2_conv_weight_to_fp16 = const()[name = tensor<string, []>("model_model_12_m_1_cv2_conv_weight_to_fp16"), val = tensor<fp16, [192, 192, 3, 3]>(BLOBFILE(path = tensor<string, []>("@model_path/weights/weight.bin"), offset = tensor<uint64, []>(26430720)))];
            tensor<fp16, [192]> model_model_12_m_1_cv2_conv_bias_to_fp16 = const()[name = tensor<string, []>("model_model_12_m_1_cv2_conv_bias_to_fp16"), val = tensor<fp16, [192]>(BLOBFILE(path = tensor<string, []>("@model_path/weights/weight.bin"), offset = tensor<uint64, []>(27094336)))];
            tensor<fp16, [1, 192, 40, 40]> input_181_cast_fp16 = conv(bias = model_model_12_m_1_cv2_conv_bias_to_fp16, dilations = var_578, groups = var_21, pad = input_181_pad_0, pad_type = input_181_pad_type_0, strides = var_576, weight = model_model_12_m_1_cv2_conv_weight_to_fp16, x = input_179_cast_fp16)[name = tensor<string, []>("input_181_cast_fp16")];
            tensor<fp16, [1, 192, 40, 40]> var_581_cast_fp16 = silu(x = input_181_cast_fp16)[name = tensor<string, []>("op_581_cast_fp16")];
            tensor<bool, []> input_183_interleave_0 = const()[name = tensor<string, []>("input_183_interleave_0"), val = tensor<bool, []>(false)];
            tensor<fp16, [1, 768, 40, 40]> input_183_cast_fp16 = concat(axis = var_21, interleave = input_183_interleave_0, values = (var_539_cast_fp16_0, var_539_cast_fp16_1, input_175_cast_fp16, var_581_cast_fp16))[name = tensor<string, []>("input_183_cast_fp16")];
            tensor<int32, [2]> var_587 = const()[name = tensor<string, []>("op_587"), val = tensor<int32, [2]>([1, 1])];
            tensor<int32, [2]> var_589 = const()[name = tensor<string, []>("op_589"), val = tensor<int32, [2]>([1, 1])];
            tensor<string, []> input_185_pad_type_0 = const()[name = tensor<string, []>("input_185_pad_type_0"), val = tensor<string, []>("custom")];
            tensor<int32, [4]> input_185_pad_0 = const()[name = tensor<string, []>("input_185_pad_0"), val = tensor<int32, [4]>([0, 0, 0, 0])];
            tensor<fp16, [384, 768, 1, 1]> model_model_12_cv2_conv_weight_to_fp16 = const()[name = tensor<string, []>("model_model_12_cv2_conv_weight_to_fp16"), val = tensor<fp16, [384, 768, 1, 1]>(BLOBFILE(path = tensor<string, []>("@model_path/weights/weight.bin"), offset = tensor<uint64, []>(27094784)))];
            tensor<fp16, [384]> model_model_12_cv2_conv_bias_to_fp16 = const()[name = tensor<string, []>("model_model_12_cv2_conv_bias_to_fp16"), val = tensor<fp16, [384]>(BLOBFILE(path = tensor<string, []>("@model_path/weights/weight.bin"), offset = tensor<uint64, []>(27684672)))];
            tensor<fp16, [1, 384, 40, 40]> input_185_cast_fp16 = conv(bias = model_model_12_cv2_conv_bias_to_fp16, dilations = var_589, groups = var_21, pad = input_185_pad_0, pad_type = input_185_pad_type_0, strides = var_587, weight = model_model_12_cv2_conv_weight_to_fp16, x = input_183_cast_fp16)[name = tensor<string, []>("input_185_cast_fp16")];
            tensor<fp16, [1, 384, 40, 40]> input_187_cast_fp16 = silu(x = input_185_cast_fp16)[name = tensor<string, []>("input_187_cast_fp16")];
            tensor<fp32, []> var_594_scale_factor_height_0 = const()[name = tensor<string, []>("op_594_scale_factor_height_0"), val = tensor<fp32, []>(0x1p+1)];
            tensor<fp32, []> var_594_scale_factor_width_0 = const()[name = tensor<string, []>("op_594_scale_factor_width_0"), val = tensor<fp32, []>(0x1p+1)];
            tensor<fp16, [1, 384, 80, 80]> var_594_cast_fp16 = upsample_nearest_neighbor(scale_factor_height = var_594_scale_factor_height_0, scale_factor_width = var_594_scale_factor_width_0, x = input_187_cast_fp16)[name = tensor<string, []>("op_594_cast_fp16")];
            tensor<bool, []> input_189_interleave_0 = const()[name = tensor<string, []>("input_189_interleave_0"), val = tensor<bool, []>(false)];
            tensor<fp16, [1, 576, 80, 80]> input_189_cast_fp16 = concat(axis = var_21, interleave = input_189_interleave_0, values = (var_594_cast_fp16, input_75_cast_fp16))[name = tensor<string, []>("input_189_cast_fp16")];
            tensor<int32, [2]> var_606 = const()[name = tensor<string, []>("op_606"), val = tensor<int32, [2]>([1, 1])];
            tensor<int32, [2]> var_608 = const()[name = tensor<string, []>("op_608"), val = tensor<int32, [2]>([1, 1])];
            tensor<string, []> input_191_pad_type_0 = const()[name = tensor<string, []>("input_191_pad_type_0"), val = tensor<string, []>("custom")];
            tensor<int32, [4]> input_191_pad_0 = const()[name = tensor<string, []>("input_191_pad_0"), val = tensor<int32, [4]>([0, 0, 0, 0])];
            tensor<fp16, [192, 576, 1, 1]> model_model_15_cv1_conv_weight_to_fp16 = const()[name = tensor<string, []>("model_model_15_cv1_conv_weight_to_fp16"), val = tensor<fp16, [192, 576, 1, 1]>(BLOBFILE(path = tensor<string, []>("@model_path/weights/weight.bin"), offset = tensor<uint64, []>(27685504)))];
            tensor<fp16, [192]> model_model_15_cv1_conv_bias_to_fp16 = const()[name = tensor<string, []>("model_model_15_cv1_conv_bias_to_fp16"), val = tensor<fp16, [192]>(BLOBFILE(path = tensor<string, []>("@model_path/weights/weight.bin"), offset = tensor<uint64, []>(27906752)))];
            tensor<fp16, [1, 192, 80, 80]> input_191_cast_fp16 = conv(bias = model_model_15_cv1_conv_bias_to_fp16, dilations = var_608, groups = var_21, pad = input_191_pad_0, pad_type = input_191_pad_type_0, strides = var_606, weight = model_model_15_cv1_conv_weight_to_fp16, x = input_189_cast_fp16)[name = tensor<string, []>("input_191_cast_fp16")];
            tensor<fp16, [1, 192, 80, 80]> var_611_cast_fp16 = silu(x = input_191_cast_fp16)[name = tensor<string, []>("op_611_cast_fp16")];
            tensor<int32, [2]> var_612 = const()[name = tensor<string, []>("op_612"), val = tensor<int32, [2]>([96, 96])];
            tensor<int32, []> var_613_axis_0 = const()[name = tensor<string, []>("op_613_axis_0"), val = tensor<int32, []>(1)];
            tensor<fp16, [1, 96, 80, 80]> var_613_cast_fp16_0, tensor<fp16, [1, 96, 80, 80]> var_613_cast_fp16_1 = split(axis = var_613_axis_0, split_sizes = var_612, x = var_611_cast_fp16)[name = tensor<string, []>("op_613_cast_fp16")];
            tensor<int32, [2]> var_621 = const()[name = tensor<string, []>("op_621"), val = tensor<int32, [2]>([1, 1])];
            tensor<int32, [2]> var_623 = const()[name = tensor<string, []>("op_623"), val = tensor<int32, [2]>([1, 1])];
            tensor<string, []> input_195_pad_type_0 = const()[name = tensor<string, []>("input_195_pad_type_0"), val = tensor<string, []>("custom")];
            tensor<int32, [4]> input_195_pad_0 = const()[name = tensor<string, []>("input_195_pad_0"), val = tensor<int32, [4]>([1, 1, 1, 1])];
            tensor<fp16, [96, 96, 3, 3]> model_model_15_m_0_cv1_conv_weight_to_fp16 = const()[name = tensor<string, []>("model_model_15_m_0_cv1_conv_weight_to_fp16"), val = tensor<fp16, [96, 96, 3, 3]>(BLOBFILE(path = tensor<string, []>("@model_path/weights/weight.bin"), offset = tensor<uint64, []>(27907200)))];
            tensor<fp16, [96]> model_model_15_m_0_cv1_conv_bias_to_fp16 = const()[name = tensor<string, []>("model_model_15_m_0_cv1_conv_bias_to_fp16"), val = tensor<fp16, [96]>(BLOBFILE(path = tensor<string, []>("@model_path/weights/weight.bin"), offset = tensor<uint64, []>(28073152)))];
            tensor<fp16, [1, 96, 80, 80]> input_195_cast_fp16 = conv(bias = model_model_15_m_0_cv1_conv_bias_to_fp16, dilations = var_623, groups = var_21, pad = input_195_pad_0, pad_type = input_195_pad_type_0, strides = var_621, weight = model_model_15_m_0_cv1_conv_weight_to_fp16, x = var_613_cast_fp16_1)[name = tensor<string, []>("input_195_cast_fp16")];
            tensor<fp16, [1, 96, 80, 80]> input_197_cast_fp16 = silu(x = input_195_cast_fp16)[name = tensor<string, []>("input_197_cast_fp16")];
            tensor<int32, [2]> var_630 = const()[name = tensor<string, []>("op_630"), val = tensor<int32, [2]>([1, 1])];
            tensor<int32, [2]> var_632 = const()[name = tensor<string, []>("op_632"), val = tensor<int32, [2]>([1, 1])];
            tensor<string, []> input_199_pad_type_0 = const()[name = tensor<string, []>("input_199_pad_type_0"), val = tensor<string, []>("custom")];
            tensor<int32, [4]> input_199_pad_0 = const()[name = tensor<string, []>("input_199_pad_0"), val = tensor<int32, [4]>([1, 1, 1, 1])];
            tensor<fp16, [96, 96, 3, 3]> model_model_15_m_0_cv2_conv_weight_to_fp16 = const()[name = tensor<string, []>("model_model_15_m_0_cv2_conv_weight_to_fp16"), val = tensor<fp16, [96, 96, 3, 3]>(BLOBFILE(path = tensor<string, []>("@model_path/weights/weight.bin"), offset = tensor<uint64, []>(28073408)))];
            tensor<fp16, [96]> model_model_15_m_0_cv2_conv_bias_to_fp16 = const()[name = tensor<string, []>("model_model_15_m_0_cv2_conv_bias_to_fp16"), val = tensor<fp16, [96]>(BLOBFILE(path = tensor<string, []>("@model_path/weights/weight.bin"), offset = tensor<uint64, []>(28239360)))];
            tensor<fp16, [1, 96, 80, 80]> input_199_cast_fp16 = conv(bias = model_model_15_m_0_cv2_conv_bias_to_fp16, dilations = var_632, groups = var_21, pad = input_199_pad_0, pad_type = input_199_pad_type_0, strides = var_630, weight = model_model_15_m_0_cv2_conv_weight_to_fp16, x = input_197_cast_fp16)[name = tensor<string, []>("input_199_cast_fp16")];
            tensor<fp16, [1, 96, 80, 80]> input_201_cast_fp16 = silu(x = input_199_cast_fp16)[name = tensor<string, []>("input_201_cast_fp16")];
            tensor<int32, [2]> var_641 = const()[name = tensor<string, []>("op_641"), val = tensor<int32, [2]>([1, 1])];
            tensor<int32, [2]> var_643 = const()[name = tensor<string, []>("op_643"), val = tensor<int32, [2]>([1, 1])];
            tensor<string, []> input_203_pad_type_0 = const()[name = tensor<string, []>("input_203_pad_type_0"), val = tensor<string, []>("custom")];
            tensor<int32, [4]> input_203_pad_0 = const()[name = tensor<string, []>("input_203_pad_0"), val = tensor<int32, [4]>([1, 1, 1, 1])];
            tensor<fp16, [96, 96, 3, 3]> model_model_15_m_1_cv1_conv_weight_to_fp16 = const()[name = tensor<string, []>("model_model_15_m_1_cv1_conv_weight_to_fp16"), val = tensor<fp16, [96, 96, 3, 3]>(BLOBFILE(path = tensor<string, []>("@model_path/weights/weight.bin"), offset = tensor<uint64, []>(28239616)))];
            tensor<fp16, [96]> model_model_15_m_1_cv1_conv_bias_to_fp16 = const()[name = tensor<string, []>("model_model_15_m_1_cv1_conv_bias_to_fp16"), val = tensor<fp16, [96]>(BLOBFILE(path = tensor<string, []>("@model_path/weights/weight.bin"), offset = tensor<uint64, []>(28405568)))];
            tensor<fp16, [1, 96, 80, 80]> input_203_cast_fp16 = conv(bias = model_model_15_m_1_cv1_conv_bias_to_fp16, dilations = var_643, groups = var_21, pad = input_203_pad_0, pad_type = input_203_pad_type_0, strides = var_641, weight = model_model_15_m_1_cv1_conv_weight_to_fp16, x = input_201_cast_fp16)[name = tensor<string, []>("input_203_cast_fp16")];
            tensor<fp16, [1, 96, 80, 80]> input_205_cast_fp16 = silu(x = input_203_cast_fp16)[name = tensor<string, []>("input_205_cast_fp16")];
            tensor<int32, [2]> var_650 = const()[name = tensor<string, []>("op_650"), val = tensor<int32, [2]>([1, 1])];
            tensor<int32, [2]> var_652 = const()[name = tensor<string, []>("op_652"), val = tensor<int32, [2]>([1, 1])];
            tensor<string, []> input_207_pad_type_0 = const()[name = tensor<string, []>("input_207_pad_type_0"), val = tensor<string, []>("custom")];
            tensor<int32, [4]> input_207_pad_0 = const()[name = tensor<string, []>("input_207_pad_0"), val = tensor<int32, [4]>([1, 1, 1, 1])];
            tensor<fp16, [96, 96, 3, 3]> model_model_15_m_1_cv2_conv_weight_to_fp16 = const()[name = tensor<string, []>("model_model_15_m_1_cv2_conv_weight_to_fp16"), val = tensor<fp16, [96, 96, 3, 3]>(BLOBFILE(path = tensor<string, []>("@model_path/weights/weight.bin"), offset = tensor<uint64, []>(28405824)))];
            tensor<fp16, [96]> model_model_15_m_1_cv2_conv_bias_to_fp16 = const()[name = tensor<string, []>("model_model_15_m_1_cv2_conv_bias_to_fp16"), val = tensor<fp16, [96]>(BLOBFILE(path = tensor<string, []>("@model_path/weights/weight.bin"), offset = tensor<uint64, []>(28571776)))];
            tensor<fp16, [1, 96, 80, 80]> input_207_cast_fp16 = conv(bias = model_model_15_m_1_cv2_conv_bias_to_fp16, dilations = var_652, groups = var_21, pad = input_207_pad_0, pad_type = input_207_pad_type_0, strides = var_650, weight = model_model_15_m_1_cv2_conv_weight_to_fp16, x = input_205_cast_fp16)[name = tensor<string, []>("input_207_cast_fp16")];
            tensor<fp16, [1, 96, 80, 80]> var_655_cast_fp16 = silu(x = input_207_cast_fp16)[name = tensor<string, []>("op_655_cast_fp16")];
            tensor<bool, []> input_209_interleave_0 = const()[name = tensor<string, []>("input_209_interleave_0"), val = tensor<bool, []>(false)];
            tensor<fp16, [1, 384, 80, 80]> input_209_cast_fp16 = concat(axis = var_21, interleave = input_209_interleave_0, values = (var_613_cast_fp16_0, var_613_cast_fp16_1, input_201_cast_fp16, var_655_cast_fp16))[name = tensor<string, []>("input_209_cast_fp16")];
            tensor<int32, [2]> var_661 = const()[name = tensor<string, []>("op_661"), val = tensor<int32, [2]>([1, 1])];
            tensor<int32, [2]> var_663 = const()[name = tensor<string, []>("op_663"), val = tensor<int32, [2]>([1, 1])];
            tensor<string, []> input_211_pad_type_0 = const()[name = tensor<string, []>("input_211_pad_type_0"), val = tensor<string, []>("custom")];
            tensor<int32, [4]> input_211_pad_0 = const()[name = tensor<string, []>("input_211_pad_0"), val = tensor<int32, [4]>([0, 0, 0, 0])];
            tensor<fp16, [192, 384, 1, 1]> model_model_15_cv2_conv_weight_to_fp16 = const()[name = tensor<string, []>("model_model_15_cv2_conv_weight_to_fp16"), val = tensor<fp16, [192, 384, 1, 1]>(BLOBFILE(path = tensor<string, []>("@model_path/weights/weight.bin"), offset = tensor<uint64, []>(28572032)))];
            tensor<fp16, [192]> model_model_15_cv2_conv_bias_to_fp16 = const()[name = tensor<string, []>("model_model_15_cv2_conv_bias_to_fp16"), val = tensor<fp16, [192]>(BLOBFILE(path = tensor<string, []>("@model_path/weights/weight.bin"), offset = tensor<uint64, []>(28719552)))];
            tensor<fp16, [1, 192, 80, 80]> input_211_cast_fp16 = conv(bias = model_model_15_cv2_conv_bias_to_fp16, dilations = var_663, groups = var_21, pad = input_211_pad_0, pad_type = input_211_pad_type_0, strides = var_661, weight = model_model_15_cv2_conv_weight_to_fp16, x = input_209_cast_fp16)[name = tensor<string, []>("input_211_cast_fp16")];
            tensor<fp16, [1, 192, 80, 80]> input_213_cast_fp16 = silu(x = input_211_cast_fp16)[name = tensor<string, []>("input_213_cast_fp16")];
            tensor<int32, [2]> var_670 = const()[name = tensor<string, []>("op_670"), val = tensor<int32, [2]>([2, 2])];
            tensor<int32, [2]> var_672 = const()[name = tensor<string, []>("op_672"), val = tensor<int32, [2]>([1, 1])];
            tensor<string, []> input_215_pad_type_0 = const()[name = tensor<string, []>("input_215_pad_type_0"), val = tensor<string, []>("custom")];
            tensor<int32, [4]> input_215_pad_0 = const()[name = tensor<string, []>("input_215_pad_0"), val = tensor<int32, [4]>([1, 1, 1, 1])];
            tensor<fp16, [192, 192, 3, 3]> model_model_16_conv_weight_to_fp16 = const()[name = tensor<string, []>("model_model_16_conv_weight_to_fp16"), val = tensor<fp16, [192, 192, 3, 3]>(BLOBFILE(path = tensor<string, []>("@model_path/weights/weight.bin"), offset = tensor<uint64, []>(28720000)))];
            tensor<fp16, [192]> model_model_16_conv_bias_to_fp16 = const()[name = tensor<string, []>("model_model_16_conv_bias_to_fp16"), val = tensor<fp16, [192]>(BLOBFILE(path = tensor<string, []>("@model_path/weights/weight.bin"), offset = tensor<uint64, []>(29383616)))];
            tensor<fp16, [1, 192, 40, 40]> input_215_cast_fp16 = conv(bias = model_model_16_conv_bias_to_fp16, dilations = var_672, groups = var_21, pad = input_215_pad_0, pad_type = input_215_pad_type_0, strides = var_670, weight = model_model_16_conv_weight_to_fp16, x = input_213_cast_fp16)[name = tensor<string, []>("input_215_cast_fp16")];
            tensor<fp16, [1, 192, 40, 40]> var_675_cast_fp16 = silu(x = input_215_cast_fp16)[name = tensor<string, []>("op_675_cast_fp16")];
            tensor<bool, []> input_217_interleave_0 = const()[name = tensor<string, []>("input_217_interleave_0"), val = tensor<bool, []>(false)];
            tensor<fp16, [1, 576, 40, 40]> input_217_cast_fp16 = concat(axis = var_21, interleave = input_217_interleave_0, values = (var_675_cast_fp16, input_187_cast_fp16))[name = tensor<string, []>("input_217_cast_fp16")];
            tensor<int32, [2]> var_687 = const()[name = tensor<string, []>("op_687"), val = tensor<int32, [2]>([1, 1])];
            tensor<int32, [2]> var_689 = const()[name = tensor<string, []>("op_689"), val = tensor<int32, [2]>([1, 1])];
            tensor<string, []> input_219_pad_type_0 = const()[name = tensor<string, []>("input_219_pad_type_0"), val = tensor<string, []>("custom")];
            tensor<int32, [4]> input_219_pad_0 = const()[name = tensor<string, []>("input_219_pad_0"), val = tensor<int32, [4]>([0, 0, 0, 0])];
            tensor<fp16, [384, 576, 1, 1]> model_model_18_cv1_conv_weight_to_fp16 = const()[name = tensor<string, []>("model_model_18_cv1_conv_weight_to_fp16"), val = tensor<fp16, [384, 576, 1, 1]>(BLOBFILE(path = tensor<string, []>("@model_path/weights/weight.bin"), offset = tensor<uint64, []>(29384064)))];
            tensor<fp16, [384]> model_model_18_cv1_conv_bias_to_fp16 = const()[name = tensor<string, []>("model_model_18_cv1_conv_bias_to_fp16"), val = tensor<fp16, [384]>(BLOBFILE(path = tensor<string, []>("@model_path/weights/weight.bin"), offset = tensor<uint64, []>(29826496)))];
            tensor<fp16, [1, 384, 40, 40]> input_219_cast_fp16 = conv(bias = model_model_18_cv1_conv_bias_to_fp16, dilations = var_689, groups = var_21, pad = input_219_pad_0, pad_type = input_219_pad_type_0, strides = var_687, weight = model_model_18_cv1_conv_weight_to_fp16, x = input_217_cast_fp16)[name = tensor<string, []>("input_219_cast_fp16")];
            tensor<fp16, [1, 384, 40, 40]> var_692_cast_fp16 = silu(x = input_219_cast_fp16)[name = tensor<string, []>("op_692_cast_fp16")];
            tensor<int32, [2]> var_693 = const()[name = tensor<string, []>("op_693"), val = tensor<int32, [2]>([192, 192])];
            tensor<int32, []> var_694_axis_0 = const()[name = tensor<string, []>("op_694_axis_0"), val = tensor<int32, []>(1)];
            tensor<fp16, [1, 192, 40, 40]> var_694_cast_fp16_0, tensor<fp16, [1, 192, 40, 40]> var_694_cast_fp16_1 = split(axis = var_694_axis_0, split_sizes = var_693, x = var_692_cast_fp16)[name = tensor<string, []>("op_694_cast_fp16")];
            tensor<int32, [2]> var_702 = const()[name = tensor<string, []>("op_702"), val = tensor<int32, [2]>([1, 1])];
            tensor<int32, [2]> var_704 = const()[name = tensor<string, []>("op_704"), val = tensor<int32, [2]>([1, 1])];
            tensor<string, []> input_223_pad_type_0 = const()[name = tensor<string, []>("input_223_pad_type_0"), val = tensor<string, []>("custom")];
            tensor<int32, [4]> input_223_pad_0 = const()[name = tensor<string, []>("input_223_pad_0"), val = tensor<int32, [4]>([1, 1, 1, 1])];
            tensor<fp16, [192, 192, 3, 3]> model_model_18_m_0_cv1_conv_weight_to_fp16 = const()[name = tensor<string, []>("model_model_18_m_0_cv1_conv_weight_to_fp16"), val = tensor<fp16, [192, 192, 3, 3]>(BLOBFILE(path = tensor<string, []>("@model_path/weights/weight.bin"), offset = tensor<uint64, []>(29827328)))];
            tensor<fp16, [192]> model_model_18_m_0_cv1_conv_bias_to_fp16 = const()[name = tensor<string, []>("model_model_18_m_0_cv1_conv_bias_to_fp16"), val = tensor<fp16, [192]>(BLOBFILE(path = tensor<string, []>("@model_path/weights/weight.bin"), offset = tensor<uint64, []>(30490944)))];
            tensor<fp16, [1, 192, 40, 40]> input_223_cast_fp16 = conv(bias = model_model_18_m_0_cv1_conv_bias_to_fp16, dilations = var_704, groups = var_21, pad = input_223_pad_0, pad_type = input_223_pad_type_0, strides = var_702, weight = model_model_18_m_0_cv1_conv_weight_to_fp16, x = var_694_cast_fp16_1)[name = tensor<string, []>("input_223_cast_fp16")];
            tensor<fp16, [1, 192, 40, 40]> input_225_cast_fp16 = silu(x = input_223_cast_fp16)[name = tensor<string, []>("input_225_cast_fp16")];
            tensor<int32, [2]> var_711 = const()[name = tensor<string, []>("op_711"), val = tensor<int32, [2]>([1, 1])];
            tensor<int32, [2]> var_713 = const()[name = tensor<string, []>("op_713"), val = tensor<int32, [2]>([1, 1])];
            tensor<string, []> input_227_pad_type_0 = const()[name = tensor<string, []>("input_227_pad_type_0"), val = tensor<string, []>("custom")];
            tensor<int32, [4]> input_227_pad_0 = const()[name = tensor<string, []>("input_227_pad_0"), val = tensor<int32, [4]>([1, 1, 1, 1])];
            tensor<fp16, [192, 192, 3, 3]> model_model_18_m_0_cv2_conv_weight_to_fp16 = const()[name = tensor<string, []>("model_model_18_m_0_cv2_conv_weight_to_fp16"), val = tensor<fp16, [192, 192, 3, 3]>(BLOBFILE(path = tensor<string, []>("@model_path/weights/weight.bin"), offset = tensor<uint64, []>(30491392)))];
            tensor<fp16, [192]> model_model_18_m_0_cv2_conv_bias_to_fp16 = const()[name = tensor<string, []>("model_model_18_m_0_cv2_conv_bias_to_fp16"), val = tensor<fp16, [192]>(BLOBFILE(path = tensor<string, []>("@model_path/weights/weight.bin"), offset = tensor<uint64, []>(31155008)))];
            tensor<fp16, [1, 192, 40, 40]> input_227_cast_fp16 = conv(bias = model_model_18_m_0_cv2_conv_bias_to_fp16, dilations = var_713, groups = var_21, pad = input_227_pad_0, pad_type = input_227_pad_type_0, strides = var_711, weight = model_model_18_m_0_cv2_conv_weight_to_fp16, x = input_225_cast_fp16)[name = tensor<string, []>("input_227_cast_fp16")];
            tensor<fp16, [1, 192, 40, 40]> input_229_cast_fp16 = silu(x = input_227_cast_fp16)[name = tensor<string, []>("input_229_cast_fp16")];
            tensor<int32, [2]> var_722 = const()[name = tensor<string, []>("op_722"), val = tensor<int32, [2]>([1, 1])];
            tensor<int32, [2]> var_724 = const()[name = tensor<string, []>("op_724"), val = tensor<int32, [2]>([1, 1])];
            tensor<string, []> input_231_pad_type_0 = const()[name = tensor<string, []>("input_231_pad_type_0"), val = tensor<string, []>("custom")];
            tensor<int32, [4]> input_231_pad_0 = const()[name = tensor<string, []>("input_231_pad_0"), val = tensor<int32, [4]>([1, 1, 1, 1])];
            tensor<fp16, [192, 192, 3, 3]> model_model_18_m_1_cv1_conv_weight_to_fp16 = const()[name = tensor<string, []>("model_model_18_m_1_cv1_conv_weight_to_fp16"), val = tensor<fp16, [192, 192, 3, 3]>(BLOBFILE(path = tensor<string, []>("@model_path/weights/weight.bin"), offset = tensor<uint64, []>(31155456)))];
            tensor<fp16, [192]> model_model_18_m_1_cv1_conv_bias_to_fp16 = const()[name = tensor<string, []>("model_model_18_m_1_cv1_conv_bias_to_fp16"), val = tensor<fp16, [192]>(BLOBFILE(path = tensor<string, []>("@model_path/weights/weight.bin"), offset = tensor<uint64, []>(31819072)))];
            tensor<fp16, [1, 192, 40, 40]> input_231_cast_fp16 = conv(bias = model_model_18_m_1_cv1_conv_bias_to_fp16, dilations = var_724, groups = var_21, pad = input_231_pad_0, pad_type = input_231_pad_type_0, strides = var_722, weight = model_model_18_m_1_cv1_conv_weight_to_fp16, x = input_229_cast_fp16)[name = tensor<string, []>("input_231_cast_fp16")];
            tensor<fp16, [1, 192, 40, 40]> input_233_cast_fp16 = silu(x = input_231_cast_fp16)[name = tensor<string, []>("input_233_cast_fp16")];
            tensor<int32, [2]> var_731 = const()[name = tensor<string, []>("op_731"), val = tensor<int32, [2]>([1, 1])];
            tensor<int32, [2]> var_733 = const()[name = tensor<string, []>("op_733"), val = tensor<int32, [2]>([1, 1])];
            tensor<string, []> input_235_pad_type_0 = const()[name = tensor<string, []>("input_235_pad_type_0"), val = tensor<string, []>("custom")];
            tensor<int32, [4]> input_235_pad_0 = const()[name = tensor<string, []>("input_235_pad_0"), val = tensor<int32, [4]>([1, 1, 1, 1])];
            tensor<fp16, [192, 192, 3, 3]> model_model_18_m_1_cv2_conv_weight_to_fp16 = const()[name = tensor<string, []>("model_model_18_m_1_cv2_conv_weight_to_fp16"), val = tensor<fp16, [192, 192, 3, 3]>(BLOBFILE(path = tensor<string, []>("@model_path/weights/weight.bin"), offset = tensor<uint64, []>(31819520)))];
            tensor<fp16, [192]> model_model_18_m_1_cv2_conv_bias_to_fp16 = const()[name = tensor<string, []>("model_model_18_m_1_cv2_conv_bias_to_fp16"), val = tensor<fp16, [192]>(BLOBFILE(path = tensor<string, []>("@model_path/weights/weight.bin"), offset = tensor<uint64, []>(32483136)))];
            tensor<fp16, [1, 192, 40, 40]> input_235_cast_fp16 = conv(bias = model_model_18_m_1_cv2_conv_bias_to_fp16, dilations = var_733, groups = var_21, pad = input_235_pad_0, pad_type = input_235_pad_type_0, strides = var_731, weight = model_model_18_m_1_cv2_conv_weight_to_fp16, x = input_233_cast_fp16)[name = tensor<string, []>("input_235_cast_fp16")];
            tensor<fp16, [1, 192, 40, 40]> var_736_cast_fp16 = silu(x = input_235_cast_fp16)[name = tensor<string, []>("op_736_cast_fp16")];
            tensor<bool, []> input_237_interleave_0 = const()[name = tensor<string, []>("input_237_interleave_0"), val = tensor<bool, []>(false)];
            tensor<fp16, [1, 768, 40, 40]> input_237_cast_fp16 = concat(axis = var_21, interleave = input_237_interleave_0, values = (var_694_cast_fp16_0, var_694_cast_fp16_1, input_229_cast_fp16, var_736_cast_fp16))[name = tensor<string, []>("input_237_cast_fp16")];
            tensor<int32, [2]> var_742 = const()[name = tensor<string, []>("op_742"), val = tensor<int32, [2]>([1, 1])];
            tensor<int32, [2]> var_744 = const()[name = tensor<string, []>("op_744"), val = tensor<int32, [2]>([1, 1])];
            tensor<string, []> input_239_pad_type_0 = const()[name = tensor<string, []>("input_239_pad_type_0"), val = tensor<string, []>("custom")];
            tensor<int32, [4]> input_239_pad_0 = const()[name = tensor<string, []>("input_239_pad_0"), val = tensor<int32, [4]>([0, 0, 0, 0])];
            tensor<fp16, [384, 768, 1, 1]> model_model_18_cv2_conv_weight_to_fp16 = const()[name = tensor<string, []>("model_model_18_cv2_conv_weight_to_fp16"), val = tensor<fp16, [384, 768, 1, 1]>(BLOBFILE(path = tensor<string, []>("@model_path/weights/weight.bin"), offset = tensor<uint64, []>(32483584)))];
            tensor<fp16, [384]> model_model_18_cv2_conv_bias_to_fp16 = const()[name = tensor<string, []>("model_model_18_cv2_conv_bias_to_fp16"), val = tensor<fp16, [384]>(BLOBFILE(path = tensor<string, []>("@model_path/weights/weight.bin"), offset = tensor<uint64, []>(33073472)))];
            tensor<fp16, [1, 384, 40, 40]> input_239_cast_fp16 = conv(bias = model_model_18_cv2_conv_bias_to_fp16, dilations = var_744, groups = var_21, pad = input_239_pad_0, pad_type = input_239_pad_type_0, strides = var_742, weight = model_model_18_cv2_conv_weight_to_fp16, x = input_237_cast_fp16)[name = tensor<string, []>("input_239_cast_fp16")];
            tensor<fp16, [1, 384, 40, 40]> input_241_cast_fp16 = silu(x = input_239_cast_fp16)[name = tensor<string, []>("input_241_cast_fp16")];
            tensor<int32, [2]> var_751 = const()[name = tensor<string, []>("op_751"), val = tensor<int32, [2]>([2, 2])];
            tensor<int32, [2]> var_753 = const()[name = tensor<string, []>("op_753"), val = tensor<int32, [2]>([1, 1])];
            tensor<string, []> input_243_pad_type_0 = const()[name = tensor<string, []>("input_243_pad_type_0"), val = tensor<string, []>("custom")];
            tensor<int32, [4]> input_243_pad_0 = const()[name = tensor<string, []>("input_243_pad_0"), val = tensor<int32, [4]>([1, 1, 1, 1])];
            tensor<fp16, [384, 384, 3, 3]> model_model_19_conv_weight_to_fp16 = const()[name = tensor<string, []>("model_model_19_conv_weight_to_fp16"), val = tensor<fp16, [384, 384, 3, 3]>(BLOBFILE(path = tensor<string, []>("@model_path/weights/weight.bin"), offset = tensor<uint64, []>(33074304)))];
            tensor<fp16, [384]> model_model_19_conv_bias_to_fp16 = const()[name = tensor<string, []>("model_model_19_conv_bias_to_fp16"), val = tensor<fp16, [384]>(BLOBFILE(path = tensor<string, []>("@model_path/weights/weight.bin"), offset = tensor<uint64, []>(35728576)))];
            tensor<fp16, [1, 384, 20, 20]> input_243_cast_fp16 = conv(bias = model_model_19_conv_bias_to_fp16, dilations = var_753, groups = var_21, pad = input_243_pad_0, pad_type = input_243_pad_type_0, strides = var_751, weight = model_model_19_conv_weight_to_fp16, x = input_241_cast_fp16)[name = tensor<string, []>("input_243_cast_fp16")];
            tensor<fp16, [1, 384, 20, 20]> var_756_cast_fp16 = silu(x = input_243_cast_fp16)[name = tensor<string, []>("op_756_cast_fp16")];
            tensor<bool, []> input_245_interleave_0 = const()[name = tensor<string, []>("input_245_interleave_0"), val = tensor<bool, []>(false)];
            tensor<fp16, [1, 960, 20, 20]> input_245_cast_fp16 = concat(axis = var_21, interleave = input_245_interleave_0, values = (var_756_cast_fp16, input_161_cast_fp16))[name = tensor<string, []>("input_245_cast_fp16")];
            tensor<int32, [2]> var_768 = const()[name = tensor<string, []>("op_768"), val = tensor<int32, [2]>([1, 1])];
            tensor<int32, [2]> var_770 = const()[name = tensor<string, []>("op_770"), val = tensor<int32, [2]>([1, 1])];
            tensor<string, []> input_247_pad_type_0 = const()[name = tensor<string, []>("input_247_pad_type_0"), val = tensor<string, []>("custom")];
            tensor<int32, [4]> input_247_pad_0 = const()[name = tensor<string, []>("input_247_pad_0"), val = tensor<int32, [4]>([0, 0, 0, 0])];
            tensor<fp16, [576, 960, 1, 1]> model_model_21_cv1_conv_weight_to_fp16 = const()[name = tensor<string, []>("model_model_21_cv1_conv_weight_to_fp16"), val = tensor<fp16, [576, 960, 1, 1]>(BLOBFILE(path = tensor<string, []>("@model_path/weights/weight.bin"), offset = tensor<uint64, []>(35729408)))];
            tensor<fp16, [576]> model_model_21_cv1_conv_bias_to_fp16 = const()[name = tensor<string, []>("model_model_21_cv1_conv_bias_to_fp16"), val = tensor<fp16, [576]>(BLOBFILE(path = tensor<string, []>("@model_path/weights/weight.bin"), offset = tensor<uint64, []>(36835392)))];
            tensor<fp16, [1, 576, 20, 20]> input_247_cast_fp16 = conv(bias = model_model_21_cv1_conv_bias_to_fp16, dilations = var_770, groups = var_21, pad = input_247_pad_0, pad_type = input_247_pad_type_0, strides = var_768, weight = model_model_21_cv1_conv_weight_to_fp16, x = input_245_cast_fp16)[name = tensor<string, []>("input_247_cast_fp16")];
            tensor<fp16, [1, 576, 20, 20]> var_773_cast_fp16 = silu(x = input_247_cast_fp16)[name = tensor<string, []>("op_773_cast_fp16")];
            tensor<int32, [2]> var_774 = const()[name = tensor<string, []>("op_774"), val = tensor<int32, [2]>([288, 288])];
            tensor<int32, []> var_775_axis_0 = const()[name = tensor<string, []>("op_775_axis_0"), val = tensor<int32, []>(1)];
            tensor<fp16, [1, 288, 20, 20]> var_775_cast_fp16_0, tensor<fp16, [1, 288, 20, 20]> var_775_cast_fp16_1 = split(axis = var_775_axis_0, split_sizes = var_774, x = var_773_cast_fp16)[name = tensor<string, []>("op_775_cast_fp16")];
            tensor<int32, [2]> var_783 = const()[name = tensor<string, []>("op_783"), val = tensor<int32, [2]>([1, 1])];
            tensor<int32, [2]> var_785 = const()[name = tensor<string, []>("op_785"), val = tensor<int32, [2]>([1, 1])];
            tensor<string, []> input_251_pad_type_0 = const()[name = tensor<string, []>("input_251_pad_type_0"), val = tensor<string, []>("custom")];
            tensor<int32, [4]> input_251_pad_0 = const()[name = tensor<string, []>("input_251_pad_0"), val = tensor<int32, [4]>([1, 1, 1, 1])];
            tensor<fp16, [288, 288, 3, 3]> model_model_21_m_0_cv1_conv_weight_to_fp16 = const()[name = tensor<string, []>("model_model_21_m_0_cv1_conv_weight_to_fp16"), val = tensor<fp16, [288, 288, 3, 3]>(BLOBFILE(path = tensor<string, []>("@model_path/weights/weight.bin"), offset = tensor<uint64, []>(36836608)))];
            tensor<fp16, [288]> model_model_21_m_0_cv1_conv_bias_to_fp16 = const()[name = tensor<string, []>("model_model_21_m_0_cv1_conv_bias_to_fp16"), val = tensor<fp16, [288]>(BLOBFILE(path = tensor<string, []>("@model_path/weights/weight.bin"), offset = tensor<uint64, []>(38329664)))];
            tensor<fp16, [1, 288, 20, 20]> input_251_cast_fp16 = conv(bias = model_model_21_m_0_cv1_conv_bias_to_fp16, dilations = var_785, groups = var_21, pad = input_251_pad_0, pad_type = input_251_pad_type_0, strides = var_783, weight = model_model_21_m_0_cv1_conv_weight_to_fp16, x = var_775_cast_fp16_1)[name = tensor<string, []>("input_251_cast_fp16")];
            tensor<fp16, [1, 288, 20, 20]> input_253_cast_fp16 = silu(x = input_251_cast_fp16)[name = tensor<string, []>("input_253_cast_fp16")];
            tensor<int32, [2]> var_792 = const()[name = tensor<string, []>("op_792"), val = tensor<int32, [2]>([1, 1])];
            tensor<int32, [2]> var_794 = const()[name = tensor<string, []>("op_794"), val = tensor<int32, [2]>([1, 1])];
            tensor<string, []> input_255_pad_type_0 = const()[name = tensor<string, []>("input_255_pad_type_0"), val = tensor<string, []>("custom")];
            tensor<int32, [4]> input_255_pad_0 = const()[name = tensor<string, []>("input_255_pad_0"), val = tensor<int32, [4]>([1, 1, 1, 1])];
            tensor<fp16, [288, 288, 3, 3]> model_model_21_m_0_cv2_conv_weight_to_fp16 = const()[name = tensor<string, []>("model_model_21_m_0_cv2_conv_weight_to_fp16"), val = tensor<fp16, [288, 288, 3, 3]>(BLOBFILE(path = tensor<string, []>("@model_path/weights/weight.bin"), offset = tensor<uint64, []>(38330304)))];
            tensor<fp16, [288]> model_model_21_m_0_cv2_conv_bias_to_fp16 = const()[name = tensor<string, []>("model_model_21_m_0_cv2_conv_bias_to_fp16"), val = tensor<fp16, [288]>(BLOBFILE(path = tensor<string, []>("@model_path/weights/weight.bin"), offset = tensor<uint64, []>(39823360)))];
            tensor<fp16, [1, 288, 20, 20]> input_255_cast_fp16 = conv(bias = model_model_21_m_0_cv2_conv_bias_to_fp16, dilations = var_794, groups = var_21, pad = input_255_pad_0, pad_type = input_255_pad_type_0, strides = var_792, weight = model_model_21_m_0_cv2_conv_weight_to_fp16, x = input_253_cast_fp16)[name = tensor<string, []>("input_255_cast_fp16")];
            tensor<fp16, [1, 288, 20, 20]> input_257_cast_fp16 = silu(x = input_255_cast_fp16)[name = tensor<string, []>("input_257_cast_fp16")];
            tensor<int32, [2]> var_803 = const()[name = tensor<string, []>("op_803"), val = tensor<int32, [2]>([1, 1])];
            tensor<int32, [2]> var_805 = const()[name = tensor<string, []>("op_805"), val = tensor<int32, [2]>([1, 1])];
            tensor<string, []> input_259_pad_type_0 = const()[name = tensor<string, []>("input_259_pad_type_0"), val = tensor<string, []>("custom")];
            tensor<int32, [4]> input_259_pad_0 = const()[name = tensor<string, []>("input_259_pad_0"), val = tensor<int32, [4]>([1, 1, 1, 1])];
            tensor<fp16, [288, 288, 3, 3]> model_model_21_m_1_cv1_conv_weight_to_fp16 = const()[name = tensor<string, []>("model_model_21_m_1_cv1_conv_weight_to_fp16"), val = tensor<fp16, [288, 288, 3, 3]>(BLOBFILE(path = tensor<string, []>("@model_path/weights/weight.bin"), offset = tensor<uint64, []>(39824000)))];
            tensor<fp16, [288]> model_model_21_m_1_cv1_conv_bias_to_fp16 = const()[name = tensor<string, []>("model_model_21_m_1_cv1_conv_bias_to_fp16"), val = tensor<fp16, [288]>(BLOBFILE(path = tensor<string, []>("@model_path/weights/weight.bin"), offset = tensor<uint64, []>(41317056)))];
            tensor<fp16, [1, 288, 20, 20]> input_259_cast_fp16 = conv(bias = model_model_21_m_1_cv1_conv_bias_to_fp16, dilations = var_805, groups = var_21, pad = input_259_pad_0, pad_type = input_259_pad_type_0, strides = var_803, weight = model_model_21_m_1_cv1_conv_weight_to_fp16, x = input_257_cast_fp16)[name = tensor<string, []>("input_259_cast_fp16")];
            tensor<fp16, [1, 288, 20, 20]> input_261_cast_fp16 = silu(x = input_259_cast_fp16)[name = tensor<string, []>("input_261_cast_fp16")];
            tensor<int32, [2]> var_812 = const()[name = tensor<string, []>("op_812"), val = tensor<int32, [2]>([1, 1])];
            tensor<int32, [2]> var_814 = const()[name = tensor<string, []>("op_814"), val = tensor<int32, [2]>([1, 1])];
            tensor<string, []> input_263_pad_type_0 = const()[name = tensor<string, []>("input_263_pad_type_0"), val = tensor<string, []>("custom")];
            tensor<int32, [4]> input_263_pad_0 = const()[name = tensor<string, []>("input_263_pad_0"), val = tensor<int32, [4]>([1, 1, 1, 1])];
            tensor<fp16, [288, 288, 3, 3]> model_model_21_m_1_cv2_conv_weight_to_fp16 = const()[name = tensor<string, []>("model_model_21_m_1_cv2_conv_weight_to_fp16"), val = tensor<fp16, [288, 288, 3, 3]>(BLOBFILE(path = tensor<string, []>("@model_path/weights/weight.bin"), offset = tensor<uint64, []>(41317696)))];
            tensor<fp16, [288]> model_model_21_m_1_cv2_conv_bias_to_fp16 = const()[name = tensor<string, []>("model_model_21_m_1_cv2_conv_bias_to_fp16"), val = tensor<fp16, [288]>(BLOBFILE(path = tensor<string, []>("@model_path/weights/weight.bin"), offset = tensor<uint64, []>(42810752)))];
            tensor<fp16, [1, 288, 20, 20]> input_263_cast_fp16 = conv(bias = model_model_21_m_1_cv2_conv_bias_to_fp16, dilations = var_814, groups = var_21, pad = input_263_pad_0, pad_type = input_263_pad_type_0, strides = var_812, weight = model_model_21_m_1_cv2_conv_weight_to_fp16, x = input_261_cast_fp16)[name = tensor<string, []>("input_263_cast_fp16")];
            tensor<fp16, [1, 288, 20, 20]> var_817_cast_fp16 = silu(x = input_263_cast_fp16)[name = tensor<string, []>("op_817_cast_fp16")];
            tensor<bool, []> input_265_interleave_0 = const()[name = tensor<string, []>("input_265_interleave_0"), val = tensor<bool, []>(false)];
            tensor<fp16, [1, 1152, 20, 20]> input_265_cast_fp16 = concat(axis = var_21, interleave = input_265_interleave_0, values = (var_775_cast_fp16_0, var_775_cast_fp16_1, input_257_cast_fp16, var_817_cast_fp16))[name = tensor<string, []>("input_265_cast_fp16")];
            tensor<int32, [2]> var_823 = const()[name = tensor<string, []>("op_823"), val = tensor<int32, [2]>([1, 1])];
            tensor<int32, [2]> var_825 = const()[name = tensor<string, []>("op_825"), val = tensor<int32, [2]>([1, 1])];
            tensor<string, []> input_267_pad_type_0 = const()[name = tensor<string, []>("input_267_pad_type_0"), val = tensor<string, []>("custom")];
            tensor<int32, [4]> input_267_pad_0 = const()[name = tensor<string, []>("input_267_pad_0"), val = tensor<int32, [4]>([0, 0, 0, 0])];
            tensor<fp16, [576, 1152, 1, 1]> model_model_21_cv2_conv_weight_to_fp16 = const()[name = tensor<string, []>("model_model_21_cv2_conv_weight_to_fp16"), val = tensor<fp16, [576, 1152, 1, 1]>(BLOBFILE(path = tensor<string, []>("@model_path/weights/weight.bin"), offset = tensor<uint64, []>(42811392)))];
            tensor<fp16, [576]> model_model_21_cv2_conv_bias_to_fp16 = const()[name = tensor<string, []>("model_model_21_cv2_conv_bias_to_fp16"), val = tensor<fp16, [576]>(BLOBFILE(path = tensor<string, []>("@model_path/weights/weight.bin"), offset = tensor<uint64, []>(44138560)))];
            tensor<fp16, [1, 576, 20, 20]> input_267_cast_fp16 = conv(bias = model_model_21_cv2_conv_bias_to_fp16, dilations = var_825, groups = var_21, pad = input_267_pad_0, pad_type = input_267_pad_type_0, strides = var_823, weight = model_model_21_cv2_conv_weight_to_fp16, x = input_265_cast_fp16)[name = tensor<string, []>("input_267_cast_fp16")];
            tensor<fp16, [1, 576, 20, 20]> input_301_cast_fp16 = silu(x = input_267_cast_fp16)[name = tensor<string, []>("input_301_cast_fp16")];
            tensor<int32, [2]> var_848 = const()[name = tensor<string, []>("op_848"), val = tensor<int32, [2]>([1, 1])];
            tensor<int32, [2]> var_850 = const()[name = tensor<string, []>("op_850"), val = tensor<int32, [2]>([1, 1])];
            tensor<string, []> input_269_pad_type_0 = const()[name = tensor<string, []>("input_269_pad_type_0"), val = tensor<string, []>("custom")];
            tensor<int32, [4]> input_269_pad_0 = const()[name = tensor<string, []>("input_269_pad_0"), val = tensor<int32, [4]>([1, 1, 1, 1])];
            tensor<fp16, [64, 192, 3, 3]> model_model_22_cv2_0_0_conv_weight_to_fp16 = const()[name = tensor<string, []>("model_model_22_cv2_0_0_conv_weight_to_fp16"), val = tensor<fp16, [64, 192, 3, 3]>(BLOBFILE(path = tensor<string, []>("@model_path/weights/weight.bin"), offset = tensor<uint64, []>(44139776)))];
            tensor<fp16, [64]> model_model_22_cv2_0_0_conv_bias_to_fp16 = const()[name = tensor<string, []>("model_model_22_cv2_0_0_conv_bias_to_fp16"), val = tensor<fp16, [64]>(BLOBFILE(path = tensor<string, []>("@model_path/weights/weight.bin"), offset = tensor<uint64, []>(44361024)))];
            tensor<fp16, [1, 64, 80, 80]> input_269_cast_fp16 = conv(bias = model_model_22_cv2_0_0_conv_bias_to_fp16, dilations = var_850, groups = var_21, pad = input_269_pad_0, pad_type = input_269_pad_type_0, strides = var_848, weight = model_model_22_cv2_0_0_conv_weight_to_fp16, x = input_213_cast_fp16)[name = tensor<string, []>("input_269_cast_fp16")];
            tensor<fp16, [1, 64, 80, 80]> input_271_cast_fp16 = silu(x = input_269_cast_fp16)[name = tensor<string, []>("input_271_cast_fp16")];
            tensor<int32, [2]> var_857 = const()[name = tensor<string, []>("op_857"), val = tensor<int32, [2]>([1, 1])];
            tensor<int32, [2]> var_859 = const()[name = tensor<string, []>("op_859"), val = tensor<int32, [2]>([1, 1])];
            tensor<string, []> input_273_pad_type_0 = const()[name = tensor<string, []>("input_273_pad_type_0"), val = tensor<string, []>("custom")];
            tensor<int32, [4]> input_273_pad_0 = const()[name = tensor<string, []>("input_273_pad_0"), val = tensor<int32, [4]>([1, 1, 1, 1])];
            tensor<fp16, [64, 64, 3, 3]> model_model_22_cv2_0_1_conv_weight_to_fp16 = const()[name = tensor<string, []>("model_model_22_cv2_0_1_conv_weight_to_fp16"), val = tensor<fp16, [64, 64, 3, 3]>(BLOBFILE(path = tensor<string, []>("@model_path/weights/weight.bin"), offset = tensor<uint64, []>(44361216)))];
            tensor<fp16, [64]> model_model_22_cv2_0_1_conv_bias_to_fp16 = const()[name = tensor<string, []>("model_model_22_cv2_0_1_conv_bias_to_fp16"), val = tensor<fp16, [64]>(BLOBFILE(path = tensor<string, []>("@model_path/weights/weight.bin"), offset = tensor<uint64, []>(44435008)))];
            tensor<fp16, [1, 64, 80, 80]> input_273_cast_fp16 = conv(bias = model_model_22_cv2_0_1_conv_bias_to_fp16, dilations = var_859, groups = var_21, pad = input_273_pad_0, pad_type = input_273_pad_type_0, strides = var_857, weight = model_model_22_cv2_0_1_conv_weight_to_fp16, x = input_271_cast_fp16)[name = tensor<string, []>("input_273_cast_fp16")];
            tensor<fp16, [1, 64, 80, 80]> input_275_cast_fp16 = silu(x = input_273_cast_fp16)[name = tensor<string, []>("input_275_cast_fp16")];
            tensor<int32, [2]> var_865 = const()[name = tensor<string, []>("op_865"), val = tensor<int32, [2]>([1, 1])];
            tensor<int32, [2]> var_867 = const()[name = tensor<string, []>("op_867"), val = tensor<int32, [2]>([1, 1])];
            tensor<string, []> var_869_pad_type_0 = const()[name = tensor<string, []>("op_869_pad_type_0"), val = tensor<string, []>("custom")];
            tensor<int32, [4]> var_869_pad_0 = const()[name = tensor<string, []>("op_869_pad_0"), val = tensor<int32, [4]>([0, 0, 0, 0])];
            tensor<fp16, [64, 64, 1, 1]> model_model_22_cv2_0_2_weight_to_fp16 = const()[name = tensor<string, []>("model_model_22_cv2_0_2_weight_to_fp16"), val = tensor<fp16, [64, 64, 1, 1]>(BLOBFILE(path = tensor<string, []>("@model_path/weights/weight.bin"), offset = tensor<uint64, []>(44435200)))];
            tensor<fp16, [64]> model_model_22_cv2_0_2_bias_to_fp16 = const()[name = tensor<string, []>("model_model_22_cv2_0_2_bias_to_fp16"), val = tensor<fp16, [64]>(BLOBFILE(path = tensor<string, []>("@model_path/weights/weight.bin"), offset = tensor<uint64, []>(44443456)))];
            tensor<fp16, [1, 64, 80, 80]> var_869_cast_fp16 = conv(bias = model_model_22_cv2_0_2_bias_to_fp16, dilations = var_867, groups = var_21, pad = var_869_pad_0, pad_type = var_869_pad_type_0, strides = var_865, weight = model_model_22_cv2_0_2_weight_to_fp16, x = input_275_cast_fp16)[name = tensor<string, []>("op_869_cast_fp16")];
            tensor<int32, [2]> var_876 = const()[name = tensor<string, []>("op_876"), val = tensor<int32, [2]>([1, 1])];
            tensor<int32, [2]> var_878 = const()[name = tensor<string, []>("op_878"), val = tensor<int32, [2]>([1, 1])];
            tensor<string, []> input_277_pad_type_0 = const()[name = tensor<string, []>("input_277_pad_type_0"), val = tensor<string, []>("custom")];
            tensor<int32, [4]> input_277_pad_0 = const()[name = tensor<string, []>("input_277_pad_0"), val = tensor<int32, [4]>([1, 1, 1, 1])];
            tensor<fp16, [192, 192, 3, 3]> model_model_22_cv3_0_0_conv_weight_to_fp16 = const()[name = tensor<string, []>("model_model_22_cv3_0_0_conv_weight_to_fp16"), val = tensor<fp16, [192, 192, 3, 3]>(BLOBFILE(path = tensor<string, []>("@model_path/weights/weight.bin"), offset = tensor<uint64, []>(44443648)))];
            tensor<fp16, [192]> model_model_22_cv3_0_0_conv_bias_to_fp16 = const()[name = tensor<string, []>("model_model_22_cv3_0_0_conv_bias_to_fp16"), val = tensor<fp16, [192]>(BLOBFILE(path = tensor<string, []>("@model_path/weights/weight.bin"), offset = tensor<uint64, []>(45107264)))];
            tensor<fp16, [1, 192, 80, 80]> input_277_cast_fp16 = conv(bias = model_model_22_cv3_0_0_conv_bias_to_fp16, dilations = var_878, groups = var_21, pad = input_277_pad_0, pad_type = input_277_pad_type_0, strides = var_876, weight = model_model_22_cv3_0_0_conv_weight_to_fp16, x = input_213_cast_fp16)[name = tensor<string, []>("input_277_cast_fp16")];
            tensor<fp16, [1, 192, 80, 80]> input_279_cast_fp16 = silu(x = input_277_cast_fp16)[name = tensor<string, []>("input_279_cast_fp16")];
            tensor<int32, [2]> var_885 = const()[name = tensor<string, []>("op_885"), val = tensor<int32, [2]>([1, 1])];
            tensor<int32, [2]> var_887 = const()[name = tensor<string, []>("op_887"), val = tensor<int32, [2]>([1, 1])];
            tensor<string, []> input_281_pad_type_0 = const()[name = tensor<string, []>("input_281_pad_type_0"), val = tensor<string, []>("custom")];
            tensor<int32, [4]> input_281_pad_0 = const()[name = tensor<string, []>("input_281_pad_0"), val = tensor<int32, [4]>([1, 1, 1, 1])];
            tensor<fp16, [192, 192, 3, 3]> model_model_22_cv3_0_1_conv_weight_to_fp16 = const()[name = tensor<string, []>("model_model_22_cv3_0_1_conv_weight_to_fp16"), val = tensor<fp16, [192, 192, 3, 3]>(BLOBFILE(path = tensor<string, []>("@model_path/weights/weight.bin"), offset = tensor<uint64, []>(45107712)))];
            tensor<fp16, [192]> model_model_22_cv3_0_1_conv_bias_to_fp16 = const()[name = tensor<string, []>("model_model_22_cv3_0_1_conv_bias_to_fp16"), val = tensor<fp16, [192]>(BLOBFILE(path = tensor<string, []>("@model_path/weights/weight.bin"), offset = tensor<uint64, []>(45771328)))];
            tensor<fp16, [1, 192, 80, 80]> input_281_cast_fp16 = conv(bias = model_model_22_cv3_0_1_conv_bias_to_fp16, dilations = var_887, groups = var_21, pad = input_281_pad_0, pad_type = input_281_pad_type_0, strides = var_885, weight = model_model_22_cv3_0_1_conv_weight_to_fp16, x = input_279_cast_fp16)[name = tensor<string, []>("input_281_cast_fp16")];
            tensor<fp16, [1, 192, 80, 80]> input_283_cast_fp16 = silu(x = input_281_cast_fp16)[name = tensor<string, []>("input_283_cast_fp16")];
            tensor<int32, [2]> var_893 = const()[name = tensor<string, []>("op_893"), val = tensor<int32, [2]>([1, 1])];
            tensor<int32, [2]> var_895 = const()[name = tensor<string, []>("op_895"), val = tensor<int32, [2]>([1, 1])];
            tensor<string, []> var_897_pad_type_0 = const()[name = tensor<string, []>("op_897_pad_type_0"), val = tensor<string, []>("custom")];
            tensor<int32, [4]> var_897_pad_0 = const()[name = tensor<string, []>("op_897_pad_0"), val = tensor<int32, [4]>([0, 0, 0, 0])];
            tensor<fp16, [80, 192, 1, 1]> model_model_22_cv3_0_2_weight_to_fp16 = const()[name = tensor<string, []>("model_model_22_cv3_0_2_weight_to_fp16"), val = tensor<fp16, [80, 192, 1, 1]>(BLOBFILE(path = tensor<string, []>("@model_path/weights/weight.bin"), offset = tensor<uint64, []>(45771776)))];
            tensor<fp16, [80]> model_model_22_cv3_0_2_bias_to_fp16 = const()[name = tensor<string, []>("model_model_22_cv3_0_2_bias_to_fp16"), val = tensor<fp16, [80]>(BLOBFILE(path = tensor<string, []>("@model_path/weights/weight.bin"), offset = tensor<uint64, []>(45802560)))];
            tensor<fp16, [1, 80, 80, 80]> var_897_cast_fp16 = conv(bias = model_model_22_cv3_0_2_bias_to_fp16, dilations = var_895, groups = var_21, pad = var_897_pad_0, pad_type = var_897_pad_type_0, strides = var_893, weight = model_model_22_cv3_0_2_weight_to_fp16, x = input_283_cast_fp16)[name = tensor<string, []>("op_897_cast_fp16")];
            tensor<bool, []> xi_1_interleave_0 = const()[name = tensor<string, []>("xi_1_interleave_0"), val = tensor<bool, []>(false)];
            tensor<fp16, [1, 144, 80, 80]> xi_1_cast_fp16 = concat(axis = var_21, interleave = xi_1_interleave_0, values = (var_869_cast_fp16, var_897_cast_fp16))[name = tensor<string, []>("xi_1_cast_fp16")];
            tensor<int32, [2]> var_906 = const()[name = tensor<string, []>("op_906"), val = tensor<int32, [2]>([1, 1])];
            tensor<int32, [2]> var_908 = const()[name = tensor<string, []>("op_908"), val = tensor<int32, [2]>([1, 1])];
            tensor<string, []> input_285_pad_type_0 = const()[name = tensor<string, []>("input_285_pad_type_0"), val = tensor<string, []>("custom")];
            tensor<int32, [4]> input_285_pad_0 = const()[name = tensor<string, []>("input_285_pad_0"), val = tensor<int32, [4]>([1, 1, 1, 1])];
            tensor<fp16, [64, 384, 3, 3]> model_model_22_cv2_1_0_conv_weight_to_fp16 = const()[name = tensor<string, []>("model_model_22_cv2_1_0_conv_weight_to_fp16"), val = tensor<fp16, [64, 384, 3, 3]>(BLOBFILE(path = tensor<string, []>("@model_path/weights/weight.bin"), offset = tensor<uint64, []>(45802816)))];
            tensor<fp16, [64]> model_model_22_cv2_1_0_conv_bias_to_fp16 = const()[name = tensor<string, []>("model_model_22_cv2_1_0_conv_bias_to_fp16"), val = tensor<fp16, [64]>(BLOBFILE(path = tensor<string, []>("@model_path/weights/weight.bin"), offset = tensor<uint64, []>(46245248)))];
            tensor<fp16, [1, 64, 40, 40]> input_285_cast_fp16 = conv(bias = model_model_22_cv2_1_0_conv_bias_to_fp16, dilations = var_908, groups = var_21, pad = input_285_pad_0, pad_type = input_285_pad_type_0, strides = var_906, weight = model_model_22_cv2_1_0_conv_weight_to_fp16, x = input_241_cast_fp16)[name = tensor<string, []>("input_285_cast_fp16")];
            tensor<fp16, [1, 64, 40, 40]> input_287_cast_fp16 = silu(x = input_285_cast_fp16)[name = tensor<string, []>("input_287_cast_fp16")];
            tensor<int32, [2]> var_915 = const()[name = tensor<string, []>("op_915"), val = tensor<int32, [2]>([1, 1])];
            tensor<int32, [2]> var_917 = const()[name = tensor<string, []>("op_917"), val = tensor<int32, [2]>([1, 1])];
            tensor<string, []> input_289_pad_type_0 = const()[name = tensor<string, []>("input_289_pad_type_0"), val = tensor<string, []>("custom")];
            tensor<int32, [4]> input_289_pad_0 = const()[name = tensor<string, []>("input_289_pad_0"), val = tensor<int32, [4]>([1, 1, 1, 1])];
            tensor<fp16, [64, 64, 3, 3]> model_model_22_cv2_1_1_conv_weight_to_fp16 = const()[name = tensor<string, []>("model_model_22_cv2_1_1_conv_weight_to_fp16"), val = tensor<fp16, [64, 64, 3, 3]>(BLOBFILE(path = tensor<string, []>("@model_path/weights/weight.bin"), offset = tensor<uint64, []>(46245440)))];
            tensor<fp16, [64]> model_model_22_cv2_1_1_conv_bias_to_fp16 = const()[name = tensor<string, []>("model_model_22_cv2_1_1_conv_bias_to_fp16"), val = tensor<fp16, [64]>(BLOBFILE(path = tensor<string, []>("@model_path/weights/weight.bin"), offset = tensor<uint64, []>(46319232)))];
            tensor<fp16, [1, 64, 40, 40]> input_289_cast_fp16 = conv(bias = model_model_22_cv2_1_1_conv_bias_to_fp16, dilations = var_917, groups = var_21, pad = input_289_pad_0, pad_type = input_289_pad_type_0, strides = var_915, weight = model_model_22_cv2_1_1_conv_weight_to_fp16, x = input_287_cast_fp16)[name = tensor<string, []>("input_289_cast_fp16")];
            tensor<fp16, [1, 64, 40, 40]> input_291_cast_fp16 = silu(x = input_289_cast_fp16)[name = tensor<string, []>("input_291_cast_fp16")];
            tensor<int32, [2]> var_923 = const()[name = tensor<string, []>("op_923"), val = tensor<int32, [2]>([1, 1])];
            tensor<int32, [2]> var_925 = const()[name = tensor<string, []>("op_925"), val = tensor<int32, [2]>([1, 1])];
            tensor<string, []> var_927_pad_type_0 = const()[name = tensor<string, []>("op_927_pad_type_0"), val = tensor<string, []>("custom")];
            tensor<int32, [4]> var_927_pad_0 = const()[name = tensor<string, []>("op_927_pad_0"), val = tensor<int32, [4]>([0, 0, 0, 0])];
            tensor<fp16, [64, 64, 1, 1]> model_model_22_cv2_1_2_weight_to_fp16 = const()[name = tensor<string, []>("model_model_22_cv2_1_2_weight_to_fp16"), val = tensor<fp16, [64, 64, 1, 1]>(BLOBFILE(path = tensor<string, []>("@model_path/weights/weight.bin"), offset = tensor<uint64, []>(46319424)))];
            tensor<fp16, [64]> model_model_22_cv2_1_2_bias_to_fp16 = const()[name = tensor<string, []>("model_model_22_cv2_1_2_bias_to_fp16"), val = tensor<fp16, [64]>(BLOBFILE(path = tensor<string, []>("@model_path/weights/weight.bin"), offset = tensor<uint64, []>(46327680)))];
            tensor<fp16, [1, 64, 40, 40]> var_927_cast_fp16 = conv(bias = model_model_22_cv2_1_2_bias_to_fp16, dilations = var_925, groups = var_21, pad = var_927_pad_0, pad_type = var_927_pad_type_0, strides = var_923, weight = model_model_22_cv2_1_2_weight_to_fp16, x = input_291_cast_fp16)[name = tensor<string, []>("op_927_cast_fp16")];
            tensor<int32, [2]> var_934 = const()[name = tensor<string, []>("op_934"), val = tensor<int32, [2]>([1, 1])];
            tensor<int32, [2]> var_936 = const()[name = tensor<string, []>("op_936"), val = tensor<int32, [2]>([1, 1])];
            tensor<string, []> input_293_pad_type_0 = const()[name = tensor<string, []>("input_293_pad_type_0"), val = tensor<string, []>("custom")];
            tensor<int32, [4]> input_293_pad_0 = const()[name = tensor<string, []>("input_293_pad_0"), val = tensor<int32, [4]>([1, 1, 1, 1])];
            tensor<fp16, [192, 384, 3, 3]> model_model_22_cv3_1_0_conv_weight_to_fp16 = const()[name = tensor<string, []>("model_model_22_cv3_1_0_conv_weight_to_fp16"), val = tensor<fp16, [192, 384, 3, 3]>(BLOBFILE(path = tensor<string, []>("@model_path/weights/weight.bin"), offset = tensor<uint64, []>(46327872)))];
            tensor<fp16, [192]> model_model_22_cv3_1_0_conv_bias_to_fp16 = const()[name = tensor<string, []>("model_model_22_cv3_1_0_conv_bias_to_fp16"), val = tensor<fp16, [192]>(BLOBFILE(path = tensor<string, []>("@model_path/weights/weight.bin"), offset = tensor<uint64, []>(47655040)))];
            tensor<fp16, [1, 192, 40, 40]> input_293_cast_fp16 = conv(bias = model_model_22_cv3_1_0_conv_bias_to_fp16, dilations = var_936, groups = var_21, pad = input_293_pad_0, pad_type = input_293_pad_type_0, strides = var_934, weight = model_model_22_cv3_1_0_conv_weight_to_fp16, x = input_241_cast_fp16)[name = tensor<string, []>("input_293_cast_fp16")];
            tensor<fp16, [1, 192, 40, 40]> input_295_cast_fp16 = silu(x = input_293_cast_fp16)[name = tensor<string, []>("input_295_cast_fp16")];
            tensor<int32, [2]> var_943 = const()[name = tensor<string, []>("op_943"), val = tensor<int32, [2]>([1, 1])];
            tensor<int32, [2]> var_945 = const()[name = tensor<string, []>("op_945"), val = tensor<int32, [2]>([1, 1])];
            tensor<string, []> input_297_pad_type_0 = const()[name = tensor<string, []>("input_297_pad_type_0"), val = tensor<string, []>("custom")];
            tensor<int32, [4]> input_297_pad_0 = const()[name = tensor<string, []>("input_297_pad_0"), val = tensor<int32, [4]>([1, 1, 1, 1])];
            tensor<fp16, [192, 192, 3, 3]> model_model_22_cv3_1_1_conv_weight_to_fp16 = const()[name = tensor<string, []>("model_model_22_cv3_1_1_conv_weight_to_fp16"), val = tensor<fp16, [192, 192, 3, 3]>(BLOBFILE(path = tensor<string, []>("@model_path/weights/weight.bin"), offset = tensor<uint64, []>(47655488)))];
            tensor<fp16, [192]> model_model_22_cv3_1_1_conv_bias_to_fp16 = const()[name = tensor<string, []>("model_model_22_cv3_1_1_conv_bias_to_fp16"), val = tensor<fp16, [192]>(BLOBFILE(path = tensor<string, []>("@model_path/weights/weight.bin"), offset = tensor<uint64, []>(48319104)))];
            tensor<fp16, [1, 192, 40, 40]> input_297_cast_fp16 = conv(bias = model_model_22_cv3_1_1_conv_bias_to_fp16, dilations = var_945, groups = var_21, pad = input_297_pad_0, pad_type = input_297_pad_type_0, strides = var_943, weight = model_model_22_cv3_1_1_conv_weight_to_fp16, x = input_295_cast_fp16)[name = tensor<string, []>("input_297_cast_fp16")];
            tensor<fp16, [1, 192, 40, 40]> input_299_cast_fp16 = silu(x = input_297_cast_fp16)[name = tensor<string, []>("input_299_cast_fp16")];
            tensor<int32, [2]> var_951 = const()[name = tensor<string, []>("op_951"), val = tensor<int32, [2]>([1, 1])];
            tensor<int32, [2]> var_953 = const()[name = tensor<string, []>("op_953"), val = tensor<int32, [2]>([1, 1])];
            tensor<string, []> var_955_pad_type_0 = const()[name = tensor<string, []>("op_955_pad_type_0"), val = tensor<string, []>("custom")];
            tensor<int32, [4]> var_955_pad_0 = const()[name = tensor<string, []>("op_955_pad_0"), val = tensor<int32, [4]>([0, 0, 0, 0])];
            tensor<fp16, [80, 192, 1, 1]> model_model_22_cv3_1_2_weight_to_fp16 = const()[name = tensor<string, []>("model_model_22_cv3_1_2_weight_to_fp16"), val = tensor<fp16, [80, 192, 1, 1]>(BLOBFILE(path = tensor<string, []>("@model_path/weights/weight.bin"), offset = tensor<uint64, []>(48319552)))];
            tensor<fp16, [80]> model_model_22_cv3_1_2_bias_to_fp16 = const()[name = tensor<string, []>("model_model_22_cv3_1_2_bias_to_fp16"), val = tensor<fp16, [80]>(BLOBFILE(path = tensor<string, []>("@model_path/weights/weight.bin"), offset = tensor<uint64, []>(48350336)))];
            tensor<fp16, [1, 80, 40, 40]> var_955_cast_fp16 = conv(bias = model_model_22_cv3_1_2_bias_to_fp16, dilations = var_953, groups = var_21, pad = var_955_pad_0, pad_type = var_955_pad_type_0, strides = var_951, weight = model_model_22_cv3_1_2_weight_to_fp16, x = input_299_cast_fp16)[name = tensor<string, []>("op_955_cast_fp16")];
            tensor<bool, []> xi_3_interleave_0 = const()[name = tensor<string, []>("xi_3_interleave_0"), val = tensor<bool, []>(false)];
            tensor<fp16, [1, 144, 40, 40]> xi_3_cast_fp16 = concat(axis = var_21, interleave = xi_3_interleave_0, values = (var_927_cast_fp16, var_955_cast_fp16))[name = tensor<string, []>("xi_3_cast_fp16")];
            tensor<int32, [2]> var_964 = const()[name = tensor<string, []>("op_964"), val = tensor<int32, [2]>([1, 1])];
            tensor<int32, [2]> var_966 = const()[name = tensor<string, []>("op_966"), val = tensor<int32, [2]>([1, 1])];
            tensor<string, []> input_303_pad_type_0 = const()[name = tensor<string, []>("input_303_pad_type_0"), val = tensor<string, []>("custom")];
            tensor<int32, [4]> input_303_pad_0 = const()[name = tensor<string, []>("input_303_pad_0"), val = tensor<int32, [4]>([1, 1, 1, 1])];
            tensor<fp16, [64, 576, 3, 3]> model_model_22_cv2_2_0_conv_weight_to_fp16 = const()[name = tensor<string, []>("model_model_22_cv2_2_0_conv_weight_to_fp16"), val = tensor<fp16, [64, 576, 3, 3]>(BLOBFILE(path = tensor<string, []>("@model_path/weights/weight.bin"), offset = tensor<uint64, []>(48350592)))];
            tensor<fp16, [64]> model_model_22_cv2_2_0_conv_bias_to_fp16 = const()[name = tensor<string, []>("model_model_22_cv2_2_0_conv_bias_to_fp16"), val = tensor<fp16, [64]>(BLOBFILE(path = tensor<string, []>("@model_path/weights/weight.bin"), offset = tensor<uint64, []>(49014208)))];
            tensor<fp16, [1, 64, 20, 20]> input_303_cast_fp16 = conv(bias = model_model_22_cv2_2_0_conv_bias_to_fp16, dilations = var_966, groups = var_21, pad = input_303_pad_0, pad_type = input_303_pad_type_0, strides = var_964, weight = model_model_22_cv2_2_0_conv_weight_to_fp16, x = input_301_cast_fp16)[name = tensor<string, []>("input_303_cast_fp16")];
            tensor<fp16, [1, 64, 20, 20]> input_305_cast_fp16 = silu(x = input_303_cast_fp16)[name = tensor<string, []>("input_305_cast_fp16")];
            tensor<int32, [2]> var_973 = const()[name = tensor<string, []>("op_973"), val = tensor<int32, [2]>([1, 1])];
            tensor<int32, [2]> var_975 = const()[name = tensor<string, []>("op_975"), val = tensor<int32, [2]>([1, 1])];
            tensor<string, []> input_307_pad_type_0 = const()[name = tensor<string, []>("input_307_pad_type_0"), val = tensor<string, []>("custom")];
            tensor<int32, [4]> input_307_pad_0 = const()[name = tensor<string, []>("input_307_pad_0"), val = tensor<int32, [4]>([1, 1, 1, 1])];
            tensor<fp16, [64, 64, 3, 3]> model_model_22_cv2_2_1_conv_weight_to_fp16 = const()[name = tensor<string, []>("model_model_22_cv2_2_1_conv_weight_to_fp16"), val = tensor<fp16, [64, 64, 3, 3]>(BLOBFILE(path = tensor<string, []>("@model_path/weights/weight.bin"), offset = tensor<uint64, []>(49014400)))];
            tensor<fp16, [64]> model_model_22_cv2_2_1_conv_bias_to_fp16 = const()[name = tensor<string, []>("model_model_22_cv2_2_1_conv_bias_to_fp16"), val = tensor<fp16, [64]>(BLOBFILE(path = tensor<string, []>("@model_path/weights/weight.bin"), offset = tensor<uint64, []>(49088192)))];
            tensor<fp16, [1, 64, 20, 20]> input_307_cast_fp16 = conv(bias = model_model_22_cv2_2_1_conv_bias_to_fp16, dilations = var_975, groups = var_21, pad = input_307_pad_0, pad_type = input_307_pad_type_0, strides = var_973, weight = model_model_22_cv2_2_1_conv_weight_to_fp16, x = input_305_cast_fp16)[name = tensor<string, []>("input_307_cast_fp16")];
            tensor<fp16, [1, 64, 20, 20]> input_309_cast_fp16 = silu(x = input_307_cast_fp16)[name = tensor<string, []>("input_309_cast_fp16")];
            tensor<int32, [2]> var_981 = const()[name = tensor<string, []>("op_981"), val = tensor<int32, [2]>([1, 1])];
            tensor<int32, [2]> var_983 = const()[name = tensor<string, []>("op_983"), val = tensor<int32, [2]>([1, 1])];
            tensor<string, []> var_985_pad_type_0 = const()[name = tensor<string, []>("op_985_pad_type_0"), val = tensor<string, []>("custom")];
            tensor<int32, [4]> var_985_pad_0 = const()[name = tensor<string, []>("op_985_pad_0"), val = tensor<int32, [4]>([0, 0, 0, 0])];
            tensor<fp16, [64, 64, 1, 1]> model_model_22_cv2_2_2_weight_to_fp16 = const()[name = tensor<string, []>("model_model_22_cv2_2_2_weight_to_fp16"), val = tensor<fp16, [64, 64, 1, 1]>(BLOBFILE(path = tensor<string, []>("@model_path/weights/weight.bin"), offset = tensor<uint64, []>(49088384)))];
            tensor<fp16, [64]> model_model_22_cv2_2_2_bias_to_fp16 = const()[name = tensor<string, []>("model_model_22_cv2_2_2_bias_to_fp16"), val = tensor<fp16, [64]>(BLOBFILE(path = tensor<string, []>("@model_path/weights/weight.bin"), offset = tensor<uint64, []>(49096640)))];
            tensor<fp16, [1, 64, 20, 20]> var_985_cast_fp16 = conv(bias = model_model_22_cv2_2_2_bias_to_fp16, dilations = var_983, groups = var_21, pad = var_985_pad_0, pad_type = var_985_pad_type_0, strides = var_981, weight = model_model_22_cv2_2_2_weight_to_fp16, x = input_309_cast_fp16)[name = tensor<string, []>("op_985_cast_fp16")];
            tensor<int32, [2]> var_992 = const()[name = tensor<string, []>("op_992"), val = tensor<int32, [2]>([1, 1])];
            tensor<int32, [2]> var_994 = const()[name = tensor<string, []>("op_994"), val = tensor<int32, [2]>([1, 1])];
            tensor<string, []> input_311_pad_type_0 = const()[name = tensor<string, []>("input_311_pad_type_0"), val = tensor<string, []>("custom")];
            tensor<int32, [4]> input_311_pad_0 = const()[name = tensor<string, []>("input_311_pad_0"), val = tensor<int32, [4]>([1, 1, 1, 1])];
            tensor<fp16, [192, 576, 3, 3]> model_model_22_cv3_2_0_conv_weight_to_fp16 = const()[name = tensor<string, []>("model_model_22_cv3_2_0_conv_weight_to_fp16"), val = tensor<fp16, [192, 576, 3, 3]>(BLOBFILE(path = tensor<string, []>("@model_path/weights/weight.bin"), offset = tensor<uint64, []>(49096832)))];
            tensor<fp16, [192]> model_model_22_cv3_2_0_conv_bias_to_fp16 = const()[name = tensor<string, []>("model_model_22_cv3_2_0_conv_bias_to_fp16"), val = tensor<fp16, [192]>(BLOBFILE(path = tensor<string, []>("@model_path/weights/weight.bin"), offset = tensor<uint64, []>(51087552)))];
            tensor<fp16, [1, 192, 20, 20]> input_311_cast_fp16 = conv(bias = model_model_22_cv3_2_0_conv_bias_to_fp16, dilations = var_994, groups = var_21, pad = input_311_pad_0, pad_type = input_311_pad_type_0, strides = var_992, weight = model_model_22_cv3_2_0_conv_weight_to_fp16, x = input_301_cast_fp16)[name = tensor<string, []>("input_311_cast_fp16")];
            tensor<fp16, [1, 192, 20, 20]> input_313_cast_fp16 = silu(x = input_311_cast_fp16)[name = tensor<string, []>("input_313_cast_fp16")];
            tensor<int32, [2]> var_1001 = const()[name = tensor<string, []>("op_1001"), val = tensor<int32, [2]>([1, 1])];
            tensor<int32, [2]> var_1003 = const()[name = tensor<string, []>("op_1003"), val = tensor<int32, [2]>([1, 1])];
            tensor<string, []> input_315_pad_type_0 = const()[name = tensor<string, []>("input_315_pad_type_0"), val = tensor<string, []>("custom")];
            tensor<int32, [4]> input_315_pad_0 = const()[name = tensor<string, []>("input_315_pad_0"), val = tensor<int32, [4]>([1, 1, 1, 1])];
            tensor<fp16, [192, 192, 3, 3]> model_model_22_cv3_2_1_conv_weight_to_fp16 = const()[name = tensor<string, []>("model_model_22_cv3_2_1_conv_weight_to_fp16"), val = tensor<fp16, [192, 192, 3, 3]>(BLOBFILE(path = tensor<string, []>("@model_path/weights/weight.bin"), offset = tensor<uint64, []>(51088000)))];
            tensor<fp16, [192]> model_model_22_cv3_2_1_conv_bias_to_fp16 = const()[name = tensor<string, []>("model_model_22_cv3_2_1_conv_bias_to_fp16"), val = tensor<fp16, [192]>(BLOBFILE(path = tensor<string, []>("@model_path/weights/weight.bin"), offset = tensor<uint64, []>(51751616)))];
            tensor<fp16, [1, 192, 20, 20]> input_315_cast_fp16 = conv(bias = model_model_22_cv3_2_1_conv_bias_to_fp16, dilations = var_1003, groups = var_21, pad = input_315_pad_0, pad_type = input_315_pad_type_0, strides = var_1001, weight = model_model_22_cv3_2_1_conv_weight_to_fp16, x = input_313_cast_fp16)[name = tensor<string, []>("input_315_cast_fp16")];
            tensor<fp16, [1, 192, 20, 20]> input_317_cast_fp16 = silu(x = input_315_cast_fp16)[name = tensor<string, []>("input_317_cast_fp16")];
            tensor<int32, [2]> var_1009 = const()[name = tensor<string, []>("op_1009"), val = tensor<int32, [2]>([1, 1])];
            tensor<int32, [2]> var_1011 = const()[name = tensor<string, []>("op_1011"), val = tensor<int32, [2]>([1, 1])];
            tensor<string, []> var_1013_pad_type_0 = const()[name = tensor<string, []>("op_1013_pad_type_0"), val = tensor<string, []>("custom")];
            tensor<int32, [4]> var_1013_pad_0 = const()[name = tensor<string, []>("op_1013_pad_0"), val = tensor<int32, [4]>([0, 0, 0, 0])];
            tensor<fp16, [80, 192, 1, 1]> model_model_22_cv3_2_2_weight_to_fp16 = const()[name = tensor<string, []>("model_model_22_cv3_2_2_weight_to_fp16"), val = tensor<fp16, [80, 192, 1, 1]>(BLOBFILE(path = tensor<string, []>("@model_path/weights/weight.bin"), offset = tensor<uint64, []>(51752064)))];
            tensor<fp16, [80]> model_model_22_cv3_2_2_bias_to_fp16 = const()[name = tensor<string, []>("model_model_22_cv3_2_2_bias_to_fp16"), val = tensor<fp16, [80]>(BLOBFILE(path = tensor<string, []>("@model_path/weights/weight.bin"), offset = tensor<uint64, []>(51782848)))];
            tensor<fp16, [1, 80, 20, 20]> var_1013_cast_fp16 = conv(bias = model_model_22_cv3_2_2_bias_to_fp16, dilations = var_1011, groups = var_21, pad = var_1013_pad_0, pad_type = var_1013_pad_type_0, strides = var_1009, weight = model_model_22_cv3_2_2_weight_to_fp16, x = input_317_cast_fp16)[name = tensor<string, []>("op_1013_cast_fp16")];
            tensor<bool, []> xi_interleave_0 = const()[name = tensor<string, []>("xi_interleave_0"), val = tensor<bool, []>(false)];
            tensor<fp16, [1, 144, 20, 20]> xi_cast_fp16 = concat(axis = var_21, interleave = xi_interleave_0, values = (var_985_cast_fp16, var_1013_cast_fp16))[name = tensor<string, []>("xi_cast_fp16")];
            tensor<int32, [3]> var_1017 = const()[name = tensor<string, []>("op_1017"), val = tensor<int32, [3]>([1, 144, -1])];
            tensor<fp16, [1, 144, 6400]> var_1018_cast_fp16 = reshape(shape = var_1017, x = xi_1_cast_fp16)[name = tensor<string, []>("op_1018_cast_fp16")];
            tensor<int32, [3]> var_1019 = const()[name = tensor<string, []>("op_1019"), val = tensor<int32, [3]>([1, 144, -1])];
            tensor<fp16, [1, 144, 1600]> var_1020_cast_fp16 = reshape(shape = var_1019, x = xi_3_cast_fp16)[name = tensor<string, []>("op_1020_cast_fp16")];
            tensor<int32, [3]> var_1021 = const()[name = tensor<string, []>("op_1021"), val = tensor<int32, [3]>([1, 144, -1])];
            tensor<fp16, [1, 144, 400]> var_1022_cast_fp16 = reshape(shape = var_1021, x = xi_cast_fp16)[name = tensor<string, []>("op_1022_cast_fp16")];
            tensor<bool, []> var_1024_interleave_0 = const()[name = tensor<string, []>("op_1024_interleave_0"), val = tensor<bool, []>(false)];
            tensor<fp16, [1, 144, 8400]> var_1024_cast_fp16 = concat(axis = var_22, interleave = var_1024_interleave_0, values = (var_1018_cast_fp16, var_1020_cast_fp16, var_1022_cast_fp16))[name = tensor<string, []>("op_1024_cast_fp16")];
            tensor<int32, [2]> var_1025 = const()[name = tensor<string, []>("op_1025"), val = tensor<int32, [2]>([64, 80])];
            tensor<int32, []> var_1026_axis_0 = const()[name = tensor<string, []>("op_1026_axis_0"), val = tensor<int32, []>(1)];
            tensor<fp16, [1, 64, 8400]> var_1026_cast_fp16_0, tensor<fp16, [1, 80, 8400]> var_1026_cast_fp16_1 = split(axis = var_1026_axis_0, split_sizes = var_1025, x = var_1024_cast_fp16)[name = tensor<string, []>("op_1026_cast_fp16")];
            tensor<int32, [4]> var_1032 = const()[name = tensor<string, []>("op_1032"), val = tensor<int32, [4]>([1, 4, 16, 8400])];
            tensor<fp16, [1, 4, 16, 8400]> var_1033_cast_fp16 = reshape(shape = var_1032, x = var_1026_cast_fp16_0)[name = tensor<string, []>("op_1033_cast_fp16")];
            tensor<int32, [4]> var_1034_perm_0 = const()[name = tensor<string, []>("op_1034_perm_0"), val = tensor<int32, [4]>([0, 2, 1, 3])];
            tensor<fp16, [1, 16, 4, 8400]> transpose_1 = transpose(perm = var_1034_perm_0, x = var_1033_cast_fp16)[name = tensor<string, []>("transpose_1")];
            tensor<fp16, [1, 16, 4, 8400]> input_cast_fp16 = softmax(axis = var_21, x = transpose_1)[name = tensor<string, []>("input_cast_fp16")];
            tensor<int32, [2]> var_1037 = const()[name = tensor<string, []>("op_1037"), val = tensor<int32, [2]>([1, 1])];
            tensor<int32, [2]> var_1039 = const()[name = tensor<string, []>("op_1039"), val = tensor<int32, [2]>([1, 1])];
            tensor<string, []> var_1041_pad_type_0 = const()[name = tensor<string, []>("op_1041_pad_type_0"), val = tensor<string, []>("custom")];
            tensor<int32, [4]> var_1041_pad_0 = const()[name = tensor<string, []>("op_1041_pad_0"), val = tensor<int32, [4]>([0, 0, 0, 0])];
            tensor<fp16, [1, 16, 1, 1]> model_model_22_dfl_conv_weight_to_fp16 = const()[name = tensor<string, []>("model_model_22_dfl_conv_weight_to_fp16"), val = tensor<fp16, [1, 16, 1, 1]>(BLOBFILE(path = tensor<string, []>("@model_path/weights/weight.bin"), offset = tensor<uint64, []>(51783104)))];
            tensor<fp16, [1, 1, 4, 8400]> var_1041_cast_fp16 = conv(dilations = var_1039, groups = var_21, pad = var_1041_pad_0, pad_type = var_1041_pad_type_0, strides = var_1037, weight = model_model_22_dfl_conv_weight_to_fp16, x = input_cast_fp16)[name = tensor<string, []>("op_1041_cast_fp16")];
            tensor<int32, [3]> var_1042 = const()[name = tensor<string, []>("op_1042"), val = tensor<int32, [3]>([1, 4, 8400])];
            tensor<fp16, [1, 4, 8400]> distance_cast_fp16 = reshape(shape = var_1042, x = var_1041_cast_fp16)[name = tensor<string, []>("distance_cast_fp16")];
            tensor<int32, [2]> var_1045_split_sizes_0 = const()[name = tensor<string, []>("op_1045_split_sizes_0"), val = tensor<int32, [2]>([2, 2])];
            tensor<int32, []> var_1045_axis_0 = const()[name = tensor<string, []>("op_1045_axis_0"), val = tensor<int32, []>(1)];
            tensor<fp16, [1, 2, 8400]> var_1045_cast_fp16_0, tensor<fp16, [1, 2, 8400]> var_1045_cast_fp16_1 = split(axis = var_1045_axis_0, split_sizes = var_1045_split_sizes_0, x = distance_cast_fp16)[name = tensor<string, []>("op_1045_cast_fp16")];
            tensor<fp16, [1, 2, 8400]> anchor_points_to_fp16 = const()[name = tensor<string, []>("anchor_points_to_fp16"), val = tensor<fp16, [1, 2, 8400]>(BLOBFILE(path = tensor<string, []>("@model_path/weights/weight.bin"), offset = tensor<uint64, []>(51783232)))];
            tensor<fp16, [1, 2, 8400]> x1y1_cast_fp16 = sub(x = anchor_points_to_fp16, y = var_1045_cast_fp16_0)[name = tensor<string, []>("x1y1_cast_fp16")];
            tensor<fp16, [1, 2, 8400]> x2y2_cast_fp16 = add(x = anchor_points_to_fp16, y = var_1045_cast_fp16_1)[name = tensor<string, []>("x2y2_cast_fp16")];
            tensor<fp16, [1, 2, 8400]> var_1049_cast_fp16 = add(x = x1y1_cast_fp16, y = x2y2_cast_fp16)[name = tensor<string, []>("op_1049_cast_fp16")];
            tensor<fp16, []> _inversed_c_xy_y_0_to_fp16 = const()[name = tensor<string, []>("_inversed_c_xy_y_0_to_fp16"), val = tensor<fp16, []>(0x1p-1)];
            tensor<fp16, [1, 2, 8400]> _inversed_c_xy_cast_fp16 = mul(x = var_1049_cast_fp16, y = _inversed_c_xy_y_0_to_fp16)[name = tensor<string, []>("_inversed_c_xy_cast_fp16")];
            tensor<fp16, [1, 2, 8400]> wh_cast_fp16 = sub(x = x2y2_cast_fp16, y = x1y1_cast_fp16)[name = tensor<string, []>("wh_cast_fp16")];
            tensor<bool, []> var_1054_interleave_0 = const()[name = tensor<string, []>("op_1054_interleave_0"), val = tensor<bool, []>(false)];
            tensor<fp16, [1, 4, 8400]> var_1054_cast_fp16 = concat(axis = var_21, interleave = var_1054_interleave_0, values = (_inversed_c_xy_cast_fp16, wh_cast_fp16))[name = tensor<string, []>("op_1054_cast_fp16")];
            tensor<fp16, [1, 8400]> var_10_to_fp16 = const()[name = tensor<string, []>("op_10_to_fp16"), val = tensor<fp16, [1, 8400]>(BLOBFILE(path = tensor<string, []>("@model_path/weights/weight.bin"), offset = tensor<uint64, []>(51816896)))];
            tensor<fp16, [1, 4, 8400]> dbox_cast_fp16 = mul(x = var_1054_cast_fp16, y = var_10_to_fp16)[name = tensor<string, []>("dbox_cast_fp16")];
            tensor<fp16, [1, 80, 8400]> var_1056_cast_fp16 = sigmoid(x = var_1026_cast_fp16_1)[name = tensor<string, []>("op_1056_cast_fp16")];
            tensor<bool, []> var_1058_interleave_0 = const()[name = tensor<string, []>("op_1058_interleave_0"), val = tensor<bool, []>(false)];
            tensor<fp16, [1, 84, 8400]> var_1058_cast_fp16 = concat(axis = var_21, interleave = var_1058_interleave_0, values = (dbox_cast_fp16, var_1056_cast_fp16))[name = tensor<string, []>("op_1058_cast_fp16")];
            tensor<int32, [3]> var_1061_begin_0 = const()[name = tensor<string, []>("op_1061_begin_0"), val = tensor<int32, [3]>([0, 0, 0])];
            tensor<int32, [3]> var_1061_end_0 = const()[name = tensor<string, []>("op_1061_end_0"), val = tensor<int32, [3]>([1, 84, 8400])];
            tensor<bool, [3]> var_1061_end_mask_0 = const()[name = tensor<string, []>("op_1061_end_mask_0"), val = tensor<bool, [3]>([false, true, true])];
            tensor<bool, [3]> var_1061_squeeze_mask_0 = const()[name = tensor<string, []>("op_1061_squeeze_mask_0"), val = tensor<bool, [3]>([true, false, false])];
            tensor<fp16, [84, 8400]> var_1061_cast_fp16 = slice_by_index(begin = var_1061_begin_0, end = var_1061_end_0, end_mask = var_1061_end_mask_0, squeeze_mask = var_1061_squeeze_mask_0, x = var_1058_cast_fp16)[name = tensor<string, []>("op_1061_cast_fp16")];
            tensor<int32, [2]> var_1064_perm_0 = const()[name = tensor<string, []>("op_1064_perm_0"), val = tensor<int32, [2]>([1, 0])];
            tensor<int32, [2]> var_1067 = const()[name = tensor<string, []>("op_1067"), val = tensor<int32, [2]>([4, 80])];
            tensor<int32, []> var_1069_axis_0 = const()[name = tensor<string, []>("op_1069_axis_0"), val = tensor<int32, []>(1)];
            tensor<fp16, [8400, 84]> transpose_0 = transpose(perm = var_1064_perm_0, x = var_1061_cast_fp16)[name = tensor<string, []>("transpose_0")];
            tensor<fp16, [8400, 4]> var_1069_cast_fp16_0, tensor<fp16, [8400, 80]> var_1069_cast_fp16_1 = split(axis = var_1069_axis_0, split_sizes = var_1067, x = transpose_0)[name = tensor<string, []>("op_1069_cast_fp16")];
            tensor<string, []> var_1069_cast_fp16_1_to_fp32_dtype_0 = const()[name = tensor<string, []>("op_1069_cast_fp16_1_to_fp32_dtype_0"), val = tensor<string, []>("fp32")];
            tensor<fp16, []> var_1072_to_fp16 = const()[name = tensor<string, []>("op_1072_to_fp16"), val = tensor<fp16, []>(0x1.998p-10)];
            tensor<fp16, [8400, 4]> var_1073_cast_fp16 = mul(x = var_1069_cast_fp16_0, y = var_1072_to_fp16)[name = tensor<string, []>("op_1073_cast_fp16")];
            tensor<string, []> var_1073_cast_fp16_to_fp32_dtype_0 = const()[name = tensor<string, []>("op_1073_cast_fp16_to_fp32_dtype_0"), val = tensor<string, []>("fp32")];
            tensor<fp32, [8400, 4]> var_1073 = cast(dtype = var_1073_cast_fp16_to_fp32_dtype_0, x = var_1073_cast_fp16)[name = tensor<string, []>("cast_7")];
            tensor<fp32, [8400, 80]> var_1069_1 = cast(dtype = var_1069_cast_fp16_1_to_fp32_dtype_0, x = var_1069_cast_fp16_1)[name = tensor<string, []>("cast_8")];
        } -> (var_1069_1, var_1073);
}